output/state_dict.pt (torch, 840245 bytes, 15 tensors)

linearSequential.0.weight f4 [64, 6]
00000000: d16b 8e3e f0cd 0f3e 05d6 c23e fb68 54be
00000010: 73ec 88be 1f63 353e 393b 733d b505 9f3e
00000020: a665 9a3e fd6d acbe d092 793d d97e 53be
00000030: 3281 9b3e 5130 14be 7215 023d 60d9 15bb
00000040: 4a04 99be 58d8 6b3e ef8f 76be 3c4f 6dbc
00000050: 330b 8ebe 99e1 423e cc3a c53d 4ac5 fdbd
00000060: 02b9 38be 9868 c83d a224 b9be d90f 863d
00000070: 79a3 38be 5a81 b93e 22cc 3dbe bf00 683d
00000080: ace8 b4be 9587 153e a6e5 6cbe 4cce 76be
00000090: 7390 993e 4d16 82be b77e 68be 8243 f93d
000000a0: 0529 9b3e 4134 e53c db7f d23e 94ea d3be
000000b0: 5db6 603d cf2d 8abd 613c 1fbe e8b6 943d
000000c0: f8b0 8bbe 1520 323e 1036 da3e a14c 81be
000000d0: 10ae 54be eabb 90be de86 55bd 14ee 33be
000000e0: adef 843e 2aef 66be 8885 1dbe a3e8 dbbe
000000f0: c30d 933e 754b 2fbe 0961 d93d 64c2 2abe
00000100: 2a3f 0fbb 6c07 17be 01f1 b83e a47a 5f3d
00000110: 6125 bc3e 9949 603e b27e 873e cf6f 913e
00000120: 7078 7dbe 9191 8a3e 6cd0 423e 5868 bcbe
00000130: 0bdf cb3e b7eb 123e 437b d03d d37b 343d
00000140: ceeb 1cbe e31a 6cbe 63a3 b9be 5ad8 85be
00000150: a054 933e a368 69bc 884f e03e 5966 943e
00000160: 06a5 babe 726d c53e 38d0 c63e 8f8e 9bbe
00000170: 37f2 b7be d805 3b3e c6fe b13d daa5 bf3e
00000180: 2490 793e 6240 9cbe fffd b13e 1f73 49be
00000190: 714b 85bd 41fa 083e d76c b0be 35df 3d3e
000001a0: 105e cc3e a0ce cbbe 2e64 59bc 2bc4 ab3e
000001b0: 7aa7 69be 454c aabe 6173 d7bd b1b7 b0be
000001c0: 216a c3be e2f8 9bbd f4d2 9abe 4ce9 9fbe
000001d0: bb7d ab3e c42c b5be 34d0 8bbe fefc 45be
000001e0: 6fc4 6bbe 247c afbe 53bd 38be 1edc 8abe
000001f0: 777c 563e d5be adbe ac26 2abd f99c cfbe
00000200: 6423 cfbd 403c fd3d 7860 1b3e ffc9 b23e
00000210: dac8 dbbe 8b59 d1bd 2f2b 49be 9aa1 883e
00000220: 8c4c 62bd 207b ab3e 5dd5 1bbd 3ab6 81be
00000230: 8d1c 91bd 3f75 933e 3d3e ea3c b479 58be
00000240: fb7d b7bd d687 87be 17a8 81be 6093 8ebd
00000250: d7e1 513d 8c80 893e ad6a 8c3d bf61 a6bd
00000260: 06a7 94bd 7ecf 4f3e dbfe f43d 250f 113d
00000270: 1a9b c0be 4e8b af3d a7f3 fe3d 1617 b13e
00000280: 397a 8a3d ed7c 7dbc 08e5 843e 1a1a 4dbd
00000290: afce 013e a0a0 c23d 448a 4cbe 71f2 33be
000002a0: 7230 7d3e 2616 273b 5b9f 8ebe 2df8 cc3e
000002b0: d1c3 71be c5db 1bbe d4bc 8e3e b537 2b3e
000002c0: 31d7 9b3d 65af 873e 4003 aebe d3db 95be
000002d0: c12f 443e 1850 3e3e c557 183e afa6 713c
000002e0: 788c 4f3d cace b7be 9ca9 ca3e 8410 4b3e
000002f0: 89ac 82be 6988 1cbe 123f 9b3e af2a 0fbd
00000300: aa58 5ebe 167c 4f3e e003 1fbd c8d4 92be
00000310: 4429 1abe 33b6 02be 4247 dfbd 86e8 b83c
00000320: 0d8a 0bbd 0e07 de3e c9b0 c6bd 9e5e 833e
00000330: ef76 913e fee9 523e d6fa ccbe 62b8 b8be
00000340: 19cc 00be ae27 d93e f566 c03d 0e8a 733e
00000350: 9a79 15be b99e 1fbe 10ed a23d e1ab fa3d
00000360: cc6b ac3e 0c71 f9bd fa9c 65be 419f 9a3e
00000370: 1ebd 6e3e ff26 cf3d 0436 9abd d30c 95bc
00000380: 9e9b 463e 7202 afbe bbf5 8abc 68ea bcbd
00000390: 99e6 383e 63ee 62be 9216 8d3e e550 c9be
000003a0: 776a 163e cc91 2bbe 3e4b 883d e227 a2be
000003b0: c85d 8d3e e42b 99bd f3ea 72be ef31 e23e
000003c0: 7d7b fcbd ad2f 6d3b 5861 5ebe 93f8 63be
000003d0: 2b57 543e 631a 923d 910f c8be 326b e1be
000003e0: ee3d 1dbe 4256 8fbe 133e 993e 965b 3e3e
000003f0: a993 15be 6edd d2bb b84c 6d3e c9d7 bebe
0.27816632 0.14043403 0.3805391 -0.20743172 -0.26742896 0.17713593 0.05938265 0.31059042
0.30155677 -0.33677664 0.060931027 -0.20653857 0.30372006 -0.14471556 0.031758733 -0.0022865161
-0.29886085 0.23031747 -0.24078344 -0.014484223 -0.2774292 0.19031371 0.09630355 -0.123911455
-0.18039325 0.09785575 -0.3616076 0.065459915 -0.1803111 0.362315 -0.18534902 0.056641337
-0.35333765 0.14602502 -0.23134479 -0.24102134 0.29993019 -0.2540764 -0.22704588 0.12171079
0.30304733 0.027979018 0.4111317 -0.41389906 0.054861415 -0.067470185 -0.15550376 0.07261449
-0.27283454 0.17395051 0.4261937 -0.25253776 -0.20769525 -0.28268367 -0.052130572 -0.17571288
0.25964108 -0.22552171 -0.1538297 -0.42950925 0.28721437 -0.17118628 0.10614211 -0.16675717
-0.0021857717 -0.14748925 0.3612137 0.05456032 0.36747268 0.21903075 0.26463848 0.28405616
-0.24752975 0.27064183 0.19024819 -0.36798358 0.39818606 0.1434773 0.1017976 0.0440634
-0.15324327 -0.23057131 -0.36257467 -0.26141626 0.287755 -0.014246139 0.43810678 0.28984335
-0.36454028 0.38560063 0.38830733 -0.303822 -0.35926983 0.18263948 0.08691172 0.37431222
0.24371392 -0.3051787 0.34764096 -0.19672821 -0.0650853 0.13376714 -0.34458038 0.18542178
0.39915514 -0.3980608 -0.013268514 0.33548102 -0.22817793 -0.33261314 -0.10520054 -0.34515145
-0.38166907 -0.0761583 -0.3023907 -0.3123268 0.33494362 -0.35385716 -0.27307284 -0.1933479
-0.23024152 -0.342744 -0.18040971 -0.2712106 0.20945917 -0.33934656 -0.041540787 -0.40549448
-0.10114172 0.123650074 0.15173519 0.34919736 -0.42926675 -0.10222157 -0.1964538 0.26685792
-0.055248782 0.33492374 -0.038045276 -0.2533434 -0.07085524 0.2880039 0.02859413 -0.21140176
-0.08959576 -0.26470822 -0.25323555 -0.06961703 0.05124077 0.26855886 0.06856284 -0.08124112
-0.0725842 0.20293996 0.11962672 0.035414834 -0.37618333 0.08571492 0.12448817 0.34587926
0.06761593 -0.015471679 0.25955987 -0.05007372 0.126765 0.09503293 -0.19974619 -0.17572953
0.24725512 0.002549538 -0.27855954 0.40033093 -0.23609854 -0.15220554 0.2787844 0.1672047
0.07609404 0.26501003 -0.33986855 -0.29269275 0.19158842 0.18585241 0.14877231 0.014749213
0.05067107 -0.35899955 0.39582527 0.19830519 -0.2552226 -0.15286411 0.30321556 -0.034952816
-0.2171351 0.20262179 -0.038822055 -0.28677964 -0.15054804 -0.12764816 -0.10902263 0.022571813
-0.034067202 0.43364757 -0.09701688 0.25658125 0.28411052 0.20597073 -0.40035123 -0.36078173
-0.12577857 0.42413086 0.093946375 0.23783132 -0.14597169 -0.15587892 0.07955372 0.122398145
0.33675992 -0.12179765 -0.22423163 0.30199626 0.2331433 0.1011486 -0.07529834 -0.018194592
0.19395301 -0.34181553 -0.016962877 -0.09224397 0.18056716 -0.2216125 0.27556282 -0.3931953
0.1468905 -0.16754836 0.06654976 -0.31671053 0.27610612 -0.074790746 -0.23722439 0.4417872
-0.12328241 0.0036191747 -0.21716821 -0.22262792 0.20736377 0.07133939 -0.39074376 -0.44027096
-0.15355656 -0.27995497 0.2993017 0.18589625 -0.14607109 -0.006435088 0.23173797 -0.37274006

linearSequential.0.bias f4 [64]
00000000: 0a5f c9bd 4e4a 953d 7eb2 ae3e 8f08 bdbe
00000010: ce76 9b3e eeb8 303e 5fce 803e 19fd 48be
00000020: dcf3 083d 7321 bbbe 34f9 3a3e 23ca f13e
00000030: 20eb 563d fce1 a83e 7374 9d3e 5f7a 27bd
00000040: fc4b 093e ca60 963c 0a36 d0be 230e d53e
00000050: 8fc0 f73e bcd6 98be 8213 68be e5ad b93e
00000060: 650d 38be e367 f23e 3561 6abe 5df3 813e
00000070: 11cb 98be 0b0b dc3c d818 88be 12ea 46be
00000080: 0004 ddbe 1efb 67bd ae2d ac3c 05bb b43e
00000090: c1c0 35bd d78a 3dbe 02cd 853e 01ad 63be
000000a0: 511a 5a3e 257c 68be 3bd1 5ebe 8b35 0ebe
000000b0: 469d 433c b140 943e 0765 bdbe a18f f6bd
000000c0: 9aea a7bd 1e4d 193d 6ca0 a0be baca 05be
000000d0: 4fc0 cc3d 08e9 83be 8daf f63d 8d90 13be
000000e0: 2673 96bc 7605 ed3e c916 c63e a56b 2e3e
000000f0: dcf3 7dbe a0ec 413e 5dbd 873e a851 b6bc
-0.098325804 0.07289563 0.34120554 -0.36920592 0.30364078 0.17258045 0.2515745 -0.19627799
0.033435687 -0.36548957 0.18259126 0.4722453 0.052470326 0.32984912 0.30752906 -0.040888187
0.13407892 0.0183567 -0.4066623 0.41612348 0.48389098 -0.2985133 -0.22663692 0.36265483
-0.1797386 0.47344884 -0.22888644 0.25380984 -0.29842427 0.026860734 -0.26581454 -0.19425228
-0.43167114 -0.05663597 0.021017876 0.35298935 -0.044373278 -0.18509994 0.2613297 -0.22233965
0.21299101 -0.22703607 -0.21759503 -0.13887613 0.011939352 0.28955606 -0.3699114 -0.12039114
-0.081990436 0.03742706 -0.31372392 -0.13065615 0.099976175 -0.25763726 0.120452024 -0.1441061
-0.018365454 0.4629323 0.3868926 0.1703325 -0.24800056 0.18937922 0.2651166 -0.022255734

linearSequential.2.weight f4 [512, 64]
00000000: 1f95 ccbd 710c 06be b392 af3d 0457 3bbd
00000010: 3013 6c3d 6be6 633d 784a d3bd 4fca b5bd
00000020: 0777 d5bd 0832 95bd feae ebbd 3aff d13d
00000030: 6485 a7bd 88c7 d6bd cda9 013d cc5f 07bd
00000040: 9d3f e53c 80c1 daba 4088 7ebd 2ba8 56bd
00000050: 28fc 2cbd 924a a73d 147f 25bd 7ec2 02bc
00000060: 2694 b43c 7802 c9bd 787e d03d 221e 8d3d
00000070: 112b 2c3d 43f1 263d 8327 c3bc be5b be3d
00000080: 494e 8a3d 0229 77bd 9c7b c33d f67c fabd
00000090: 0c67 283d 1b95 3cbd 0cc6 1dbd e4af d33d
000000a0: 6c54 a1bd 9a77 debd 5042 38bc 37f7 abbd
000000b0: b679 c0bd bec6 57bc 4751 313c 6784 9fbd
000000c0: 65c6 1ebc 0461 5c3d c253 65bd 083c 513d
000000d0: a093 a5bd 73b5 933d 4fe2 28bc 5297 3bbc
000000e0: 66af e3bd 5813 e6bc 3ed3 debd 00e4 313c
000000f0: 8964 ef3c b422 7dbd cca3 e93d 12d8 b1bd
00000100: 9089 51bd 9507 8bbc 9fac 303d bf26 f0bd
00000110: 6347 56bd f24c d9bd d86f 9b3d ff65 41bd
00000120: 91a6 b93d 12cb d03d 50d4 cc3d b5e3 64bd
00000130: 73cd 5138 ed58 cc3c 5294 93bd 4cb2 063e
00000140: b821 1a3a 4a60 5d3d 7b16 983d b998 9bbc
00000150: 6dc2 0bbd a5ea 92bd 33b8 c3bd e710 da3d
00000160: e414 1dbc ec39 be3d c38c 813d b552 0c3e
00000170: 8be1 a03d b47e b2bd 8a60 393c d62c 45bd
00000180: 16bc 363d 2504 bebc cd41 a63d 2424 bebd
00000190: 43e0 023e 99b4 f7bc 3d62 f53d 4623 8abd
000001a0: 4a49 c6bc ac0d df3d bbee 293d 0dd6 dc3d
000001b0: 6ee8 b3bd bfd4 e6bc 2e73 debd 8518 e33d
000001c0: 5c33 fbbc 96ed deba 62fd cbbd 95b6 e23d
000001d0: 9abb bfbd 6f3a 733d 5c0e 55bd 978d 8d3d
000001e0: e4cc ca3d 8b09 713c 85cb 1c3d 9cde 313d
000001f0: 719c d73c 030e 3fbd 14fe 35bd a0f8 813d
00000200: bcc7 ad3d b049 9e3d d5e4 253e c6f0 8d3c
00000210: 1600 9bbc 3998 8ebd 0d5a 963d 8c4f ffbd
00000220: 686d d63d ed56 67bd bf96 b23d 57c7 3a3e
00000230: 2464 3e3c 47ab 5c3d 9e74 0a3e 9c06 d63d
00000240: 0ff3 62bc c51c 863d 6713 ce3d f9d1 8bbd
00000250: 3537 4a3e 1672 9ebd a6cb e1bc e20b 8f3d
00000260: 57f1 3e3d 269b aa3d 20c1 863d 2302 573d
00000270: f5c4 f53d c1c9 9f3d d2a6 3c3d 95cd a93d
00000280: 2cf6 24bd acba 40bd d35b 4b3d e3b8 023e
00000290: bb93 adbd b5df ca3c b9af 98bb f810 04be
000002a0: d27c 81bc 9b2f 703d a2a2 45bd a06e f8bd
000002b0: 1577 37bd 5dc6 e03c 8d22 783d 8085 833c
000002c0: fc5c 9bbd 2ad4 c23d 08ec 51bd 0312 c0bd
000002d0: 78f3 fabc b0c1 afbd 7506 2f3b 9eff 133d
000002e0: 9560 123e 0ab3 8e3c bf80 053e c1cf da3a
000002f0: 6f32 88bd 9999 d63d b9be a03c 2d2d 6e3d
00000300: d4a5 ba3d 986a 09bc 60d3 e3bb 10d2 71bd
00000310: a45a 8dbb 2501 eabd 9186 bf3d edf0 efbd
00000320: b867 ac3d 7d45 e8bd 90f6 513d ca1e 093e
00000330: c98e 8dbd 7f12 92bc 9368 7e3d 5f6d e03d
00000340: a14b 043e 2060 45bc 25e5 00bc 976a 1c3e
00000350: 70b7 6a3d e953 46bd 1730 003e bf46 3d3e
00000360: 358f 80ba f90c 9d3c 92a3 ffbc 6273 073e
00000370: 8a43 033d b1c1 f23d 417b 823b 4c18 ab3d
00000380: e6a3 6d3d 7ddd c23d fe41 bc3c ab89 223e
00000390: 7842 043e 9ea0 803b 6c18 ae3d f1a5 e33b
000003a0: eee4 6ebd 677d 6d3d f6e4 cdbd 25b5 f4bd
000003b0: 7dee c43c 94f7 4c3d 38d0 1cbe 4753 b5bd
000003c0: 3cf4 ca3d 966c c6bd 3e28 19bd cc9d c53b
000003d0: 3b42 97bd 4ee9 d1bc cc55 f73d 95bf dabd
000003e0: 490a 1a3d d864 1cbd 02bf 133d 258e 013c
000003f0: 5213 bebd a44f 68bd 509a 81bd 6cd2 023c
-0.0998938 -0.13090684 0.085729025 -0.04573728 0.057635486 0.055639666 -0.10316938 -0.08876478
-0.10423093 -0.07284933 -0.115079865 0.10253759 -0.08179739 -0.10487276 0.031656075 -0.033050343
0.027984435 -0.0016689748 -0.062141657 -0.05240647 -0.042232662 0.0816852 -0.040404394 -0.007980941
0.022043299 -0.09814924 0.10180372 0.06890513 0.04203326 0.04075743 -0.023822552 0.09294842
0.06753213 -0.060341842 0.09545061 -0.12230866 0.0411139 -0.046040636 -0.03851895 0.10336283
-0.0787743 -0.10862656 -0.011246279 -0.08396762 -0.093982145 -0.013169942 0.010822601 -0.077889256
-0.009690856 0.05380346 -0.05598808 0.05108264 -0.08084798 0.07212343 -0.010307862 -0.011449652
-0.11117439 -0.028085396 -0.10880135 0.010857582 0.029222744 -0.061800674 0.11408195 -0.0868379
-0.05115658 -0.016971389 0.043133374 -0.1172614 -0.052314173 -0.10610379 0.07589692 -0.04721641
0.09064973 0.101949826 0.10001433 -0.05588122 5.0020823e-05 0.024944747 -0.07206024 0.13153952
0.0005879658 0.054046907 0.07426163 -0.018993722 -0.034120966 -0.07173661 -0.095566176 0.10647755
-0.0095875 0.092883915 0.06325676 0.13703425 0.07855519 -0.08715573 0.011314521 -0.048138462
0.044612966 -0.023195336 0.08118019 -0.09284237 0.12780862 -0.030237483 0.11981628 -0.06745009
-0.024204869 0.108912796 0.041487437 0.107830144 -0.08784567 -0.028177617 -0.108618125 0.11088661
-0.030664138 -0.0017008062 -0.09960438 0.11069981 -0.09361954 0.0593819 -0.052015647 0.06911772
0.09902361 0.014711748 0.03828003 0.043425187 0.026319714 -0.046644222 -0.04443176 0.063462496
0.08485362 0.077288985 0.16200574 0.017326724 -0.01892094 -0.06962628 0.073413946 -0.12466344
0.10470086 -0.056479383 0.08720159 0.18240105 0.011620555 0.05387428 0.13521048 0.104504794
-0.013851895 0.06548456 0.100622945 -0.068271585 0.19747622 -0.07736604 -0.027562927 0.06984688
0.04661688 0.083303735 0.065798044 0.052492272 0.12000457 0.078021534 0.04605753 0.08291165
-0.04027383 -0.047053024 0.049648117 0.12765841 -0.08475443 0.024764875 -0.0046596196 -0.12897098
-0.01580659 0.05863915 -0.0482508 -0.12130475 -0.0447913 0.027438337 0.060579825 0.016054869
-0.07586095 0.09513123 -0.051250488 -0.093784355 -0.030633673 -0.08581865 0.002670673 0.036132447
0.14294656 0.017419357 0.13037394 0.0016693996 -0.066502444 0.10478515 0.019622194 0.05814855
0.091136605 -0.00838723 -0.006952688 -0.05903822 -0.0043137837 -0.114259996 0.093518384 -0.11715875
0.0841822 -0.11341379 0.05126053 0.13390651 -0.06912 -0.017831085 0.06211145 0.10958361
0.12919475 -0.012046844 -0.007867132 0.15275036 0.057303846 -0.048419867 0.12518345 0.18484019
-0.0009808304 0.019171225 -0.031205926 0.13227609 0.032046832 0.1185335 0.003981978 0.08354244
0.058017634 0.09514902 0.022980686 0.15872829 0.12915981 0.003925397 0.08500752 0.006947272
-0.058323793 0.05798092 -0.100534365 -0.11948613 0.024039501 0.050040796 -0.15313804 -0.088537745
0.09909865 -0.0968868 -0.037391894 0.0060307737 -0.07385679 -0.025623944 0.12076911 -0.106810726
0.037607465 -0.03818211 0.03607083 0.007907425 -0.09281029 -0.056716576 -0.06328261 0.007984739

linearSequential.2.bias f4 [512]
00000000: f381 c9bd 38e8 ad3d a777 2d3e f046 dabb
00000010: fba8 c13d 62ba c03d 9943 f33d 5fb3 f43c
00000020: 40da 353e e41d 0b3c 08f0 193e da5c cd3d
00000030: ea0e 293e 9925 8e3d f403 49bd 4cb9 f0bc
00000040: 304a 273e 3d63 173e 8e90 503e cf46 473e
00000050: 9179 943d 47a1 343d c2a8 60bd 7a3d 4d3e
00000060: a4f7 70bc f97b cebb e159 f23d 0f86 b93d
00000070: b41b 1e3e f490 4d3d d607 4a3e e316 053e
00000080: ed72 c23c 9b1c 8f3d 2d1e bfbb 8581 19bd
00000090: f227 f73d 683f 223e c51e 3e3e 6180 373e
000000a0: 9967 7cbc f95e fc3d a9c6 303e d7f8 223e
000000b0: 8340 6f3d ab6b 023e 473f 0b3e 53c7 29bd
000000c0: 19ff 5e3c a304 093e fae0 c53d aee5 6f3d
000000d0: 4338 933d 2876 9a3c 30d5 b43b 9397 023e
000000e0: 5dbb 593d 8457 d53d 37fd edbd e869 eb3d
000000f0: 4c0e 813d e8ef 883d edcf 3d3e a82c 21bd
00000100: 74fc 223e bfc9 3e3d f3e7 213e cac0 36bd
00000110: 7b50 013e bb57 793d 8136 18bd 0508 6ebd
00000120: 7fba ef3c f04f ddbb 93d3 153d 8946 e63d
00000130: 0c7f e93d 13be 633d 9458 c23d 9c2f 37bd
00000140: 3ab5 bbbc a70f 8ebd 05de 3d3e dd00 d9bc
00000150: e55d a7bc 4de6 02bb 665c c73d b3c6 5a3e
00000160: 6846 d0bb 93ff 853d c3aa 4abd 7040 ff3d
00000170: 1ce0 41bd 6a91 01bd 0d29 083e 29ce 893d
00000180: a419 df3d 8fe9 bc3d 8577 1a3e 29be 363b
00000190: 50fa b8bc 853d 363e 7535 d8bd f7ea a43d
000001a0: 940e 8fbd 097d 2c3b 6f07 b23d 442a 333e
000001b0: 8fc9 68bd b9d1 75bd b31c 80bc 867d dc3d
000001c0: bdc5 2a3e 3995 3a3e 7cd6 eb3d 4833 5d3c
000001d0: 6bee 253e fef0 fe3d abb8 c73d 4407 c0bd
000001e0: 60da 133e dfac 523d df9b bfbc e015 6a3d
000001f0: d347 963d 6d5e b3bc d5c1 f43d 90a5 3c3e
00000200: 34d2 683d 244b fb3d 736a de3d 89ab c03d
00000210: f1ee 363e c77c c8bb 5e2c b63d b3b5 8ebc
00000220: bef7 0f3e 71cf 163e 79e4 c43d 3819 563e
00000230: 256f 033e fd6a 1c3e fe7d 94bc d6e2 7b3d
00000240: 6cbd 4d3d 6744 363e 1cc5 4c3d c796 1a3e
00000250: 853d a7bc 5dea c1bd 4dc0 83bd f3f5 263e
00000260: 0285 c13d fd8d 85bd 41a9 3b3e b63a 0b3d
00000270: d8d3 7d3c b584 043e 5dca e03d 92bc 463e
00000280: 0b8b 2e3d a507 f0bb 12ef 13bd 553b 4a3e
00000290: 275c 49bd 07cd 3dbd 9fdb 6f3d 2ea1 183e
000002a0: 5fd8 db3d d432 103e e62a 193e d9a6 a93d
000002b0: 16b6 123e c416 173e e586 4f3e 6826 80bc
000002c0: a45c 423e e4e9 7c3d e0a9 9f3d d2c7 113d
000002d0: a2a1 883d b167 fb3c fbde 88bd e3c2 533e
000002e0: b876 e73d 34a9 1e3e 1415 3c3c 483f 32bd
000002f0: 898f aa3d e02a 4a3e 4bbb 123c 6692 f93d
00000300: 85b8 313d a809 133e 656f 403e f339 47bc
00000310: 8da0 fc3d fe39 66bd 24b1 57bd 5890 363d
00000320: 3a4b 3b3e e053 aa3d 0cc6 dc3d 227c 43bb
00000330: e972 963d 89b6 443e 36af 01bd 33eb 0a3d
00000340: 1bf5 433e 709c febc d122 3b3e 436e 123e
00000350: 6198 8b3d bfb0 253e 10af 223d 7dd0 57bc
00000360: f95e b33d ee7a 5dbc 6b83 1c3e 9536 903c
00000370: 4705 d23d f6fb 0f3e 3628 81bd 12ae 3e3e
00000380: 3b62 bebd ca00 83bc 81db 273e f166 d33d
00000390: 081d 813c 2c0d d63c 96da c43d 125a 8d3c
000003a0: 704b 593d c2ad aa3a 5430 1bbd 6690 883d
000003b0: dffb 8abc 2e0e 2a3e 553c 293d 8bf4 57bd
000003c0: c682 523e 10a2 173d e38e 333e 1915 f2bc
000003d0: 012b 893c 23c1 5bbd b79b 6e3d e9e2 bc3d
000003e0: 6fbb 0a3d e392 6abd f0a5 3e3e b3de 0f3c
000003f0: 91e0 793a 6c71 073e 5757 763d 0b1a 233d
-0.09839239 0.08491558 0.16940175 -0.0066612884 0.094560586 0.0941055 0.118781276 0.029870687
0.17759037 0.008491013 0.15032971 0.10027476 0.16509596 0.06940765 -0.049076036 -0.029385231
0.16336894 0.1478395 0.20367643 0.19460605 0.072497495 0.04409912 -0.05484844 0.20042983
-0.01470748 -0.0063014 0.11833549 0.09058773 0.15440255 0.050187066 0.19729552 0.12997012
0.023736442 0.06987878 -0.0058324547 -0.037477035 0.12068166 0.158445 0.18566425 0.17920066
-0.015405559 0.12322802 0.17263283 0.15915237 0.058411133 0.12736385 0.13598357 -0.041449856
0.013610625 0.13380675 0.096620515 0.05856865 0.071884654 0.01885517 0.005518578 0.12753133
0.0531572 0.10417083 -0.116205625 0.114948094 0.06301555 0.066863835 0.18536349 -0.03934923
0.15916616 0.04657912 0.15811138 -0.04461745 0.12628357 0.060874682 -0.037161354 -0.058113117
0.029263733 -0.006753914 0.036578726 0.11243922 0.114011854 0.05560119 0.09489551 -0.04472314
-0.022913564 -0.06936579 0.18541725 -0.02648967 -0.020430515 -0.0019973696 0.097344205 0.2136486
-0.0063560493 0.065428875 -0.049479257 0.12463462 -0.047332868 -0.03163282 0.1329691 0.06728775
0.108935624 0.09224235 0.15084656 0.002788434 -0.022580296 0.17796905 -0.10557071 0.080526285
-0.069852024 0.0026319644 0.08692824 0.17496592 -0.056832846 -0.06001446 -0.015638685 0.10766129
0.16676994 0.18220986 0.11515519 0.013500996 0.1620423 0.12448309 0.097520195 -0.09376386
0.14438772 0.051434394 -0.023389755 0.057149768 0.07337918 -0.021895612 0.11951033 0.18422532
0.05684109 0.12270191 0.10860147 0.09407718 0.17864586 -0.0061183902 0.08895181 -0.017420625
0.1405935 0.1472757 0.0961389 0.20908058 0.12835367 0.15275188 -0.018126484 0.061495624
0.050229475 0.17799531 0.049992666 0.1509658 -0.020415077 -0.094685294 -0.06433163 0.1630476
0.09449197 -0.06521223 0.18326284 0.033991538 0.015492402 0.12941249 0.10976098 0.19407871
0.04261307 -0.00732513 -0.036116667 0.19749196 -0.04916015 -0.046338107 0.058559056 0.14905235
0.10734629 0.1408189 0.1495777 0.08283777 0.14327273 0.14754778 0.20266302 -0.015643314
0.18980652 0.061746493 0.07796073 0.035590954 0.06671454 0.030689092 -0.06683155 0.20679812
0.11301941 0.15494233 0.011479635 -0.04351738 0.083281584 0.19742918 0.008955787 0.121861264
0.043388862 0.14359152 0.18792494 -0.012159812 0.1233531 -0.05620765 -0.05265917 0.04457125
0.18290415 0.08316779 0.10779962 -0.0029828628 0.07346136 0.19210257 -0.031661235 0.03391571
0.19136469 -0.031080455 0.18275 0.14299874 0.06816173 0.16180705 0.039717734 -0.013172266
0.08758349 -0.013518078 0.15284507 0.017604152 0.10254913 0.14060959 -0.06306498 0.1862109
-0.0929608 -0.015991587 0.16392328 0.10322369 0.015760913 0.026129328 0.096120045 0.017254863
0.05305046 0.0013021755 -0.037887886 0.06668167 -0.016965805 0.16606972 0.041317303 -0.05272345
0.20557699 0.03701979 0.17534976 -0.029551076 0.016744139 -0.053650986 0.05825397 0.09222967
0.033870157 -0.05726899 0.18617988 0.008781123 0.0009532059 0.13226861 0.060141888 0.03981976

linearSequential.4.weight f4 [256, 512]
00000000: f77a e5bc 4b29 6fbc 8113 babb 3319 273c
00000010: e0ef e33c 0d73 ec3d 922b 7f3c 7d18 5f3c
00000020: b68b d43b 2df7 723d 370a 033e bf2f 8f3d
00000030: 92a5 6c3d 9948 5c3c 286f ff3c 241c 0c3d
00000040: aafa 813c 99b0 29bc ab18 cd3c 202e c73c
00000050: 6a13 d43c c0da 023d 3b35 803c 3ae0 2b3d
00000060: df0e 593d c9e6 483c c686 df3c 2511 963c
00000070: 6a65 163d 29e8 0abd adab 9f3d ce03 99bb
00000080: 6111 a0bc 927a 233c 5abb 523d a11f 93bc
00000090: 71f7 2d3d 08c0 a13d 9cbe a63d 13a2 2c3d
000000a0: e3ad 193d f82c 533d b9af 443d 54a9 7c3d
000000b0: f69e 8e3d 9679 db3c 00a1 dc3c 2693 78bc
000000c0: 15fc 69bc 2d82 3a3d 8648 723a 0257 00bd
000000d0: fd64 0f3d d93f 2bbc 2e41 18bd ed32 ee3c
000000e0: d8db 253c 7bd8 263d 5ff1 ed3a f7e2 163d
000000f0: db8e f43c 189c d63d 8560 343d 00be 2e3c
00000100: 58cb 5a3d 8f93 103b 6ae1 f6bb 91a6 16bc
00000110: 0b10 1f3d 57b5 a7ba e227 bb3c 4e0e 69bc
00000120: bbef 2b3d 6984 d1bc 8b6c 773d a646 9dbc
00000130: 4bfa 823d f4d0 a03b ab46 04bc 33c3 943a
00000140: f4ee 88bc fb42 20bd e297 833d e761 0c3c
00000150: b3d8 a63b f314 40bb c307 f93a df38 903d
00000160: e94d 80bb fc0b e73c 3fbb c1bb 7328 cf39
00000170: 5cab b7bc c6b8 a4bb fe08 803d eb7d 223d
00000180: 605e 093d 3c33 3bbb a638 293b 06f8 04bc
00000190: fdd7 e1bc 1f77 283d 3862 d9bc cfb5 c93d
000001a0: d568 e43c 4538 b6bc 3e62 06bc a2bf 813d
000001b0: 47a7 c4bc ed8d d03a 8dac 2e3d 8053 1a3d
000001c0: 98b3 0e3d 561d 7d3d 8d8e 083d 3ec4 edbc
000001d0: 6976 6dbc 7a9d 18ba 7fa8 41bb 6c9d 933c
000001e0: 84b3 b93d f183 283d bba4 143d 325d 343d
000001f0: 64fd 9f3d b299 283d 9034 b73b 27c2 76bb
00000200: 9a87 d6bc ee97 7f3c 6479 9cbc 9506 c73d
00000210: 3585 0c3c a97a b43c a52f 95ba 5066 c3bc
00000220: 2d4b 8e3c 9270 583d 2fad 4c3d 20cc 2d3d
00000230: 2943 3c3d e0d3 573d 11a8 51bc 76c6 44bc
00000240: 4ad4 013c 4bde 6e3d 9ecc febb 1a6b 2f3c
00000250: c08f 103d 88d5 c3bb 1368 833c 3c3c 5cbc
00000260: 6ca7 1d3d 6310 903b 41fc 113d e3be 91bc
00000270: 4f3b 86bc 38c1 b73d ef1b a43c e1a8 a63d
00000280: 00f0 423c e157 673b e4e1 063d ad69 053d
00000290: c07c 55bb 8122 07bc 6f68 723d 407e a13d
000002a0: e85c 5f3c 2676 923d 55de 923d dc13 393c
000002b0: 45fc 483d 37a7 103c 300c 9d3d 0cdb 97bc
000002c0: cc55 993d 1d4a 9b3c 0e52 b03c b2e7 a23c
000002d0: f52f 503d 239c e73c 3280 14bd 2eff a83d
000002e0: abdd 743d 88c5 443d 083a df3c 7986 1d3d
000002f0: 41b6 9a3c 3aa4 6a3d 740d 2a3d 2c6a 9d3c
00000300: bbe2 6a3d c1b9 a9bc 6aa1 9f3d 27ee c0ba
00000310: fc40 973c 0c9f 14bd 25bf e7bc 8c15 303d
00000320: 5ac0 d33b 9014 a4bc cc8b 693d 591b 363c
00000330: f465 173c bff2 913d 662d 093d 9de1 293c
00000340: d8a0 563d 22bf c03c c3cb 503d 035b 0d3d
00000350: 509d 333d 1986 b43d 66e6 713d e7ab 48bb
00000360: 0c71 0cbc 1a04 563d 414e bf3c 443c 133d
00000370: bd5a 223d 771f 923d 4260 43bc 109c 993d
00000380: c121 9ebc 145d cc3b 1af9 353c 626c a83d
00000390: 2cc8 b6b9 baae 5d3d 3bff 0c3d 21c1 c13c
000003a0: d810 64bc 39ab 0b3d 1330 11bd 7c16 943d
000003b0: 17a7 a83b 9425 4c3c 5d3d a9bc ad38 7b3d
000003c0: 28e6 543d e72a 013e 341e 973c 3635 813c
000003d0: 1426 1a3d 2b0f 5c3d 5f22 8bbc bec9 9dba
000003e0: 466f 553d 68b9 21bd 3e50 883d 00f7 2b3d
000003f0: 1635 81bc 3721 1d3d 7a85 6c3b 2ed9 883c
-0.028012736 -0.014597247 -0.0056785946 0.010198879 0.027824342 0.11545382 0.015574353 0.013616678
0.0064863814 0.059317756 0.12796865 0.06991529 0.057775088 0.013445043 0.031180933 0.034206524
0.015866596 -0.010357046 0.025036177 0.024313986 0.025888164 0.031946898 0.015650382 0.041961886
0.052992698 0.012262055 0.027285945 0.018318722 0.03671781 -0.03391281 0.077964164 -0.004669643
-0.019539537 0.0099779535 0.051448204 -0.017959418 0.042472307 0.07897955 0.081418246 0.042146754
0.037519347 0.051556557 0.048019145 0.06168492 0.06963913 0.026791375 0.02693224 -0.015171802
-0.014281292 0.0455343 0.0009242374 -0.031332977 0.03500842 -0.010452234 -0.037171535 0.029077018
0.010123216 0.040733796 0.0018153599 0.036837544 0.029853275 0.10478991 0.04403736 0.010665417
0.05341658 0.0022060608 -0.0075341957 -0.009194986 0.03883366 -0.0012795132 0.022846166 -0.014224602
0.04197667 -0.025575833 0.06040625 -0.019198727 0.06395396 0.0049077217 -0.008073489 0.0011349678
-0.016715504 -0.039126378 0.06425454 0.008568264 0.0050917505 -0.0029309362 0.0018999506 0.07042097
-0.0039155376 0.028203957 -0.005912214 0.00039512254 -0.022420578 -0.0050269095 0.06251715 0.039670866
0.03353727 -0.0028564474 0.0025821119 -0.008115774 -0.027568812 0.041129228 -0.026536092 0.0984913
0.027882019 -0.022243628 -0.008202134 0.06335379 -0.024005545 0.0015911438 0.042645026 0.037677288
0.034839243 0.061795555 0.033339072 -0.02902424 -0.014493563 -0.00058218057 -0.0029549894 0.0180194
0.09067443 0.041141454 0.03628991 0.04403419 0.07812002 0.0411622 0.0055909827 -0.0037652345
-0.026187707 0.015600188 -0.019100852 0.09718052 0.008576681 0.022031145 -0.0011381997 -0.023852497
0.017369831 0.05284173 0.04996985 0.042430997 0.045962486 0.052692294 -0.012796418 -0.012010207
0.007924149 0.058317464 -0.007775857 0.010706687 0.03529334 -0.0059763826 0.016040837 -0.013442095
0.038489744 0.0043964847 0.03564096 -0.017791217 -0.016385702 0.089724004 0.020032851 0.0813768
0.011898041 0.0035300183 0.03293027 0.032571483 -0.0032575577 -0.0082479725 0.059181627 0.078854084
0.01363299 0.07151441 0.07171313 0.011296239 0.049068708 0.00882893 0.0766834 -0.018537067
0.074870676 0.018956238 0.021523502 0.019885872 0.050826985 0.028272694 -0.03625507 0.08251797
0.05978171 0.048039943 0.027249351 0.03845832 0.018885734 0.057285525 0.041516736 0.019215666
0.057345133 -0.020718457 0.07794459 -0.0014719412 0.018463604 -0.03628449 -0.028289387 0.0429893
0.006462139 -0.020029336 0.057018086 0.011114919 0.009240616 0.07126378 0.03349056 0.010368732
0.052399486 0.02352864 0.050975572 0.034510624 0.043851197 0.088146396 0.059057616 -0.003062004
-0.008571874 0.052250005 0.023352744 0.035946146 0.039637316 0.07134908 -0.011924805 0.0750047
-0.019303204 0.0062366817 0.011106754 0.082237974 -0.00034862885 0.05412171 0.034423094 0.023651661
-0.0139200315 0.034098838 -0.035446238 0.07230851 0.005146872 0.012460131 -0.020659143 0.061333347
0.051977307 0.12614022 0.01844702 0.015772443 0.03763397 0.053725403 -0.016984163 -0.0012038273
0.05210807 -0.039483458 0.0665593 0.041983604 -0.015772384 0.038361754 0.00360903 0.016705122

linearSequential.4.bias f4 [256]
00000000: c27f 2c3d 5702 24bc 9baa cd3d 10b5 ffbc
00000010: bb46 2f3c 28bd d7bc f842 f0bc c026 8b3b
00000020: 39c5 db3c 3054 55bd 826c 173d 6d42 2a3d
00000030: 433c 2ebc 35c1 93bc a427 b33d c198 283d
00000040: fd68 c63d 9880 82bc ee93 c93c 14f0 22bc
00000050: d0a8 5c3d 712a 7f3d 8d12 b73c 23a9 cfbc
00000060: 8ad6 d23d ea89 1d3d ced7 d53d c085 ce3d
00000070: c401 dabc aa9b f2bc aaae 4b3d a80d b03d
00000080: ab82 ff3c b965 373d 3e8f d3bc bc40 68bc
00000090: 80fc 29ba ccb4 993d cb32 b03d 34d9 343c
000000a0: 1cfd 143d 541f 50bc f56b 043d b3c1 b63d
000000b0: d5c3 9b3d 9746 6a3c 48eb 1c3d dfe3 cdbb
000000c0: f1f5 d63d 9f8b 5ebd d2ac 543d 7cbb fd3c
000000d0: db09 d83d 5402 883c 5375 9dbc 07d1 973d
000000e0: 5745 cb3d 3c00 1abc 6036 db3d 4d61 e4bc
000000f0: 4f3c cb3c 3347 e73c 2e9a 383d 1d41 0f3d
00000100: a3ec dd3d 3a0c 4abd b2d8 153d 8344 dbbc
00000110: edd8 363d 081d e53d 4a4f e93d 8e31 c43d
00000120: 5a5e a03d 5ac1 f33c a34a 743d 4433 1abd
00000130: ab19 aa3d 025b e83c 114c 283d 7778 a13d
00000140: 9373 ea3d 0f0e 903d 97ee a03d b4f5 be3c
00000150: 3d48 ea3b 5f83 83bc 5692 ee3d 2f54 9b3d
00000160: 93b6 dc3d c14d a03d 3cd6 803d 93ef 823d
00000170: 2b76 893d ccf3 383d e95c d03d 2b67 743c
00000180: 0899 503d b0bd e43d c36a d8bb ddb3 bc3d
00000190: 8890 da3d e9e8 223d 4864 463d b341 f63c
000001a0: 7bb7 d53c a215 623d eb74 49bd 0f74 4fbd
000001b0: 95c1 873b f40a c63c 29e3 c13d e85a 47bd
000001c0: d79f 063d e230 b4bb 062f 0c3d ae3c 963d
000001d0: d16b 213d b83b 0e3d 674b 6e3d 6f77 8b3b
000001e0: 506b bf3d f3a9 5a3d e703 c7bc 4824 6ebb
000001f0: 8823 683d a9bd b73d 1ae7 21bd ff1e bc3d
00000200: d201 833c 9948 4bbd e6a1 943d 7dc7 f83c
00000210: 6455 29bd 874a 8f3c 2d08 973c 9235 b93d
00000220: 0a7a 3b3d 2976 053d 9e41 10bd 59b1 0cbd
00000230: e914 5dbc 719e f23c 7655 2f3d 02f6 163d
00000240: be46 053d f173 04bd 5592 3d3d 0cea 1e3d
00000250: ca30 e13b a900 873d 65b0 f1bc 582f 86bb
00000260: f104 d93d 6471 ef3c 4c08 0a3d 4767 413d
00000270: ebb6 a13d 8f56 3ebd 0f80 e03c 237f 593d
00000280: b52c f93c ac14 dd3d 3aeb 733d bbb9 74bc
00000290: 921f 4f3c c506 c43d 472f a83c cba2 9f3d
000002a0: c6fe 32bd 6692 bfbc 8015 ebbb ecc6 233d
000002b0: e52f 6e3d 4733 bf3d 1df7 3fbd 197b 503d
000002c0: 0180 e4bc 7659 033c 2474 e7bc 84b6 0c3d
000002d0: 4991 a73d fcb4 9fba 35fb cc3d 673d c93d
000002e0: 40ed 07bc ce88 df3b 3c37 1bbc 0864 b03d
000002f0: 2a4e 623d 46a0 943d a755 cd3c cbd6 4bbd
00000300: 35e1 f23c b1ad dd3d d1b0 9a3d 2c2b b63d
00000310: 81b8 dc3d b327 b239 347c d93d b390 fbbc
00000320: ce17 edbc ccb0 47bc 285d 2cbd 3a24 943d
00000330: 5c33 083d 0f1d d23d 02d6 df3c 9cd5 903c
00000340: f5cf 8a3c 779f c53d 94f1 433c 4862 053d
00000350: eb08 c83d 80ff c53d 0f7d f3bc bd58 35bb
00000360: 03e5 b63d f7b3 753d 8a54 873c 416e e13d
00000370: 47ff ab3c 3674 a93c 0d10 8d3d af9a 5dbc
00000380: a77f 9f3d dca1 963d b722 cabc 751e 0dbd
00000390: 7cd9 a4bc d88a 993d 3790 b93d 5660 123d
000003a0: e5a1 e13b feaa ce3d df7f 36bd 22ad 7a3d
000003b0: 2014 893d 8c57 d03d ca2b 7f3d 65e1 b23b
000003c0: 6abf cbbc c289 a43d 0d48 2cbd e421 2d3d
000003d0: ca52 01bd ea79 41bd 1e46 de3c dc21 cd3d
000003e0: f572 893d 0d9b b9bc cf31 c73c 25e1 573c
000003f0: 3089 47bc 59e8 193d ee42 5a3d 0185 0d3d
0.042114027 -0.0100103235 0.10042306 -0.031214267 0.010698016 -0.026335314 -0.029328808 0.0042465627
0.026827442 -0.05208224 0.036968715 0.041567255 -0.010634485 -0.018036464 0.08747795 0.041161302
0.09687994 -0.015930459 0.024606671 -0.009944934 0.05387193 0.062296335 0.022347713 -0.025349205
0.10294826 0.038461603 0.10441552 0.100841045 -0.02661217 -0.029615242 0.04972712 0.08596355
0.031190237 0.044774745 -0.02582514 -0.01417559 -0.0006484464 0.075051874 0.08603438 0.011038113
0.036374196 -0.012702782 0.03232952 0.08923664 0.07605711 0.0142990565 0.03831032 -0.006283268
0.10496128 -0.05433237 0.051922627 0.030973189 0.10548755 0.016602673 -0.019220984 0.07412916
0.09925335 -0.00939947 0.107037306 -0.027878428 0.02480903 0.028232193 0.045068912 0.034974206
0.108361505 -0.049328066 0.03658361 -0.026766067 0.04464047 0.11187178 0.11392076 0.09579764
0.07830496 0.029755283 0.05964149 -0.037646547 0.08305677 0.028363708 0.041088168 0.07884305
0.11447825 0.070339315 0.078580074 0.02331052 0.0071497248 -0.016053854 0.11649005 0.07584416
0.10777011 0.078273304 0.06290862 0.063933514 0.06711992 0.045154378 0.10173971 0.014917175
0.050927192 0.111689925 -0.006604524 0.09213994 0.106720984 0.0397729 0.04843548 0.030060625
0.026088467 0.055196412 -0.049183767 -0.05064779 0.00414295 0.024175145 0.094671555 -0.04867068
0.03286728 -0.0054989913 0.034224533 0.073357925 0.039409462 0.03472492 0.058177378 0.004256181
0.0934664 0.053384732 -0.024293853 -0.0036337543 0.05667451 0.08971722 -0.039527036 0.091855995
0.015992079 -0.04962978 0.07257442 0.03036856 -0.0413412 0.017491592 0.018436516 0.09043421
0.045770682 0.03258339 -0.035218827 -0.03434882 -0.013493755 0.029616566 0.04280611 0.036855705
0.032538168 -0.032337133 0.04628213 0.038797423 0.006872271 0.06591923 -0.029503057 -0.0040949993
0.105966456 0.029228874 0.03369932 0.047217634 0.07896217 -0.046469267 0.027404813 0.053099763
0.030416826 0.107949585 0.0595505 -0.01493686 0.012641804 0.09571604 0.020530356 0.07794722
-0.043700002 -0.023385238 -0.007174194 0.03998463 0.058151145 0.09335952 -0.046866525 0.050898645
-0.027893068 0.008016935 -0.028253622 0.034353748 0.08182008 -0.0012184675 0.100088514 0.09826165
-0.008296311 0.0068217283 -0.009473618 0.086128294 0.055250324 0.07257132 0.025065256 -0.04976539
0.029648403 0.10824145 0.07553256 0.08894953 0.10777379 0.00033980384 0.10619393 -0.030708646
-0.028942015 -0.012188148 -0.04208103 0.07233472 0.033252105 0.10259449 0.027323727 0.017679982
0.016944865 0.09649556 0.011959452 0.03256443 0.09767326 0.096678734 -0.029722719 -0.00276713
0.08930399 0.05998608 0.016519804 0.110073574 0.02099575 0.020685297 0.06887827 -0.013525649
0.077880196 0.07355091 -0.024674756 -0.034452874 -0.020123236 0.074971855 0.0906071 0.035736404
0.0068857544 0.10091208 -0.04455554 0.06120027 0.06693292 0.10172948 0.06229762 0.005458998
-0.024871547 0.08034088 -0.0420609 0.04226865 -0.031573094 -0.047235407 0.027133044 0.10016224
0.067113794 -0.022656942 0.024315743 0.013176237 -0.012178704 0.0375751 0.053286485 0.03455067

linearSequential.6.weight f4 [128, 256]
00000000: b603 6f3d 001a c43b e0f7 02bd 530f fc3c
00000010: 3a67 7fbd 862b 133d eb2c 853c ca4f e73c
00000020: 02d9 50bc fe43 c4bc e1d0 12bb a4da 3ebd
00000030: 483e 8e3c 5232 653d 3fb9 df3c 09e3 fbbc
00000040: 8905 55bd 0d36 fdbc bca5 b63c f184 4fbd
00000050: b334 65bd f8de 143c c2db 3fbc 5394 55bd
00000060: be8d cd3c 29e6 43bd a5a1 20bd 67f6 76bd
00000070: df48 fbbc 2e64 45bd ce9c 69ba 56b3 023d
00000080: dcbe 48bd 2a80 5f3d 1ebd 5cbd bc8a c0bc
00000090: fcc6 65bd fa12 c5bc 2880 143d 46bf b6bb
000000a0: 122d 50bd 2fa4 10bd 3c08 57bd 9db5 293d
000000b0: 0759 403d ca71 5abd 1350 0f3d 537b 4abc
000000c0: f086 303d c60e 263d e858 a438 0e64 5fbd
000000d0: 24af 92bc 408f 8eba 3249 3b3d 1d16 593d
000000e0: 373a 633c 005b f0bb b429 7dbd 906b 63bd
000000f0: 7ada 2e3d a6df 363d d832 c13c 1248 bf3c
00000100: a1ad 49bd 807f adbc c065 daba 0a9d 4bbd
00000110: 919f 523d acc9 063d 66f6 203c c8bc 6fbd
00000120: ecc9 323d 4a33 ff3c 98f0 793d 2aab 6bbd
00000130: 6ed6 973c 7815 493d 5577 9aba 935a 393d
00000140: 9abc 49bd f715 82bd c169 48bd 33af 603c
00000150: 9c91 e4bc fa32 1f3c b232 313b 7cac efbc
00000160: 510a 8bbd ec04 80bd 3658 023d 2097 ebbc
00000170: fed1 273d bbff c1bb f081 42bc 6fd2 d9bc
00000180: 4547 69bd e76f 89bb 2998 b33b f961 25bd
00000190: 2297 493c 549a 02bc f765 073c 18a2 103c
000001a0: 90fd e9ba 9f99 70bd 6400 853c 94a2 06bd
000001b0: 6c88 533d 721b 41bd a0f1 55bd 702f 053d
000001c0: 508b 033c dc18 9b3c d199 edbc 2397 74bd
000001d0: 2c31 493d 10a7 733d 1047 44bd 7ecb 22bd
000001e0: ed5c d1bc 4208 6fbc 016b 403d fab9 03bd
000001f0: 2a30 643b 37f8 9b3c 4044 2e3b 8101 4e3d
00000200: ec7b a23c 544d 0f3d 7eed e6bc 6af8 44bd
00000210: 9c6d 35bd 8fdc 81bd 6add 1bbd 1a57 86bd
00000220: eef1 923c 5ef2 443d 94f2 ecbc 8a0e 82bd
00000230: 6f9f 3d3d ec1b e93c 16fe 973c e0d0 0fbc
00000240: 7a98 1a3d d069 dabb 98f7 89bc 666b 603d
00000250: 7c48 47bc d64f 44bd c834 64bd 9c02 14bd
00000260: d9f7 30bd ee4c 58bd f8f7 ec3c cc25 d7bc
00000270: de2e 15bd 91f9 443c 1880 1b3d 65f6 fbbc
00000280: 0e9f 50bd f1e2 293d 869b 1fbc 1fc3 253d
00000290: a02e 603c fc64 06bd 8c27 cdbc f958 75bd
000002a0: aa63 0a3c 8269 2bbd d060 933b 40ea 63bc
000002b0: 5c89 9ebc 5ed7 c13c 72f5 0b3d 585e 60bd
000002c0: d85e a9bc bcb7 d53c 2cae eabc 14b3 073d
000002d0: 520b 7c3d d593 1a3d 6f47 7dbd 7890 d73b
000002e0: 4e83 573d 2ae3 383c 207b aa3b 7a74 023d
000002f0: 4e9c 4fbd 21ba 1ebc 9ee8 32bd f062 a7bc
00000300: 973a 1ebb 63fd a7bc a406 87bd 2ae3 07bd
00000310: 8260 303c 3851 29bc 3e4f 063d 8cee fa3c
00000320: cbb7 34bd 0848 143c ae75 7a3d 9ec6 5bbc
00000330: c2bb 16bd 017a 42bd 440a ff3c 0020 be3b
00000340: a9d9 ad3c 73f5 e1bc 2d86 63bd 6fe0 55bd
00000350: 784e b93c 07e6 08bc cde7 f7bc 20a9 3ebd
00000360: 3460 a0bc 5dad 29bd 0289 cb3c 0e35 82bd
00000370: a27b a63c dc13 16bd 48d7 93bc 195c 54bc
00000380: 103d 483d f413 bfbc cca3 d0bc 54a0 fb3c
00000390: 0dbe 073d 4180 003d f856 553d 9498 35bd
000003a0: 40bf 2cbb fefd 363c 1bcb f73c 240f 293d
000003b0: 02c8 b3ba 7a10 473d 793d 953b 3fe9 2b3d
000003c0: 17eb ed3c 7f85 aab9 de8d 25bd 4195 72bd
000003d0: 80bf 433b 30a9 3cbd 7825 92bc 7c7e 213d
000003e0: 5d7a 053c 62fb 183d b208 81bd 04e8 d93c
000003f0: ec23 ad3c 83c4 0cbd 3550 fa3c d4af 7b3d
0.05835315 0.0059845448 -0.031974673 0.030769026 -0.062354304 0.03593018 0.01625677 0.028236289
-0.012747051 -0.023958202 -0.0022402334 -0.04659523 0.017363682 0.055956192 0.027310012 -0.030747907
-0.05200723 -0.030909562 0.022295825 -0.050663892 -0.05595846 0.009086363 -0.011710109 -0.052143406
0.025092002 -0.04782692 -0.039216656 -0.06029358 -0.030674396 -0.048191242 -0.00089116103 0.03190931
-0.049010143 0.054565586 -0.053891294 -0.023503654 -0.05609797 -0.0240569 0.03625503 -0.005577001
-0.050824232 -0.035312828 -0.052498087 0.041432966 0.046959903 -0.053331174 0.034988474 -0.012358504
0.043097436 0.040541433 7.8366895e-05 -0.05453878 -0.01790578 -0.0010876432 0.0457241 0.052999604
0.01386886 -0.007335067 -0.06180735 -0.0555225 0.042688824 0.04464688 0.023583815 0.023349795
-0.04923785 -0.02117896 -0.0016662404 -0.04971031 0.051421706 0.032907173 0.009824371 -0.058529645
0.0436496 0.031152386 0.061020464 -0.05753628 0.018534865 0.04909274 -0.0011784831 0.045252394
-0.04925213 -0.06351846 -0.04892898 0.013713646 -0.027901463 0.009716744 0.0027038273 -0.029257052
-0.06789077 -0.06250939 0.031822406 -0.028758585 0.04097175 -0.005920378 -0.0118718 -0.0265896
-0.056952734 -0.004194248 0.0054807854 -0.040376637 0.012304099 -0.007971365 0.008264056 0.008827709
-0.0017852057 -0.058740254 0.016235538 -0.03286989 0.051643774 -0.047145315 -0.052232385 0.032515943
0.00802882 0.018932752 -0.02900401 -0.059714448 0.04911916 0.059485495 -0.047919333 -0.039744847
-0.025557006 -0.014589371 0.046977047 -0.032159783 0.0034818747 0.019039256 0.0026590973 0.050294403
0.019834481 0.034985855 -0.028189417 -0.04808847 -0.044293985 -0.06340896 -0.038052954 -0.06559582
0.017937627 0.0480827 -0.028924264 -0.06350429 0.046294626 0.028455697 0.018553775 -0.008777827
0.03774307 -0.006665446 -0.016841695 0.054789923 -0.012163278 -0.0479277 -0.0557144 -0.0361353
-0.043205116 -0.05280774 0.028926834 -0.02626314 -0.03642165 0.012022392 0.037963957 -0.030757139
-0.050932936 0.041476194 -0.0097416695 0.040469285 0.013682991 -0.03281115 -0.025043271 -0.059899304
0.008446613 -0.041848667 0.004497625 -0.01391083 -0.019352607 0.023662265 0.03416962 -0.054777473
-0.020675108 0.026088588 -0.028647505 0.033129767 0.061534233 0.03773864 -0.061835703 0.0065785013
0.052615456 0.011284629 0.005202666 0.031849362 -0.050686173 -0.009687931 -0.043678872 -0.02043292
-0.002414381 -0.020506566 -0.065930635 -0.033175625 0.010765197 -0.010334305 0.032790415 0.030631326
-0.04412059 0.009050377 0.061147384 -0.013414053 -0.036800154 -0.047479633 0.031132825 0.0058021545
0.021221953 -0.02758286 -0.055547882 -0.05221599 0.022620425 -0.008355624 -0.030261898 -0.04654801
-0.019577123 -0.041425098 0.024845604 -0.06357776 0.020322625 -0.036640033 -0.01804699 -0.012961411
0.04888636 -0.023324944 -0.02546873 0.030716099 0.03314023 0.031372312 0.052084893 -0.044334963
-0.002635911 0.011168955 0.030248215 0.041274205 -0.0013716223 0.048599698 0.0045544473 0.041970488
0.029042764 -0.0003252439 -0.0404185 -0.05922437 0.0029868782 -0.046059787 -0.017840132 0.039427266
0.008146849 0.037349112 -0.063004866 0.026599891 0.021135293 -0.034367096 0.030555824 0.06144698

linearSequential.6.bias f4 [128]
00000000: 29cb 4bbd 50fd 453c 30bc c03d c3f2 7d3b
00000010: 5aa4 58bd f39a bc3b a738 81bd dd77 83bd
00000020: 365e 3f3d e3ad 88bb 39f7 bebc 9fb8 8dbd
00000030: e7cd be3d 5625 9e3d 1540 d83d 1849 333d
00000040: 4cf6 d43d 6e5b 62bd 26fc 913d c5b8 7bbd
00000050: 16cd 45bd 56b5 423d e5b6 873d f5a8 c33d
00000060: 5e18 563d 81d2 17bc 29bc 52bd 7fb2 603d
00000070: acd1 7dbd 7cf7 09bd e024 44bd 0b5a f53d
00000080: 5c61 4dbd a048 d93d aa09 5c3b 5b47 453d
00000090: 4207 d63d 2ab3 2d3d 9d7b e4bc 89e1 9d3d
000000a0: 0098 d0bb d792 d63d da86 4fbd 0670 f5bc
000000b0: 9928 923d ebde 903d c134 5f3d e04e 99bc
000000c0: 0f43 c93d 5215 473d 0c4b 503d 1af3 0cbd
000000d0: f239 b33d 8ee4 d43d 6eb1 003e cfd9 a9bc
000000e0: de89 863d 85fd eb3d 781d ff3c 8d96 d53d
000000f0: a537 33bd 727a 293d d23d 13bd f7fe 65bd
00000100: 3c85 593d 1834 df3c f91a 0d3d 2231 03bc
00000110: f7d9 dd3c b96f 2c3c 6a8d f33d 2e50 783d
00000120: 26eb 3a3d 5beb ae3d fef3 bc3d 5e75 fc3c
00000130: 7ffa 72bd eca2 353d f1c0 e63d 93a4 f33d
00000140: 41d2 4a3b 5067 babc 6efb 803d dd27 7f3d
00000150: 8c91 c43d 387a ff3b ccd8 3a3d 4475 f23c
00000160: b5a6 f23d 5bb4 02bd 0552 5b3d 7bfa cb3d
00000170: 9b8c 2c3d 2120 3c3c af66 bebc 6770 413d
00000180: c099 ac3d 1f12 ec3c 9efd cdbc 8147 863d
00000190: dab1 2bbd b07f ac3d 4686 f73d 6b4f 923d
000001a0: 6603 1b3d ea95 fc3d 917e b53c 506d 163d
000001b0: 1b23 76bc e339 c83d 4b21 a3bc 469f c0bc
000001c0: ff70 903d d818 bfbc eca6 7bbb ed24 c4b9
000001d0: b35a 513a 7e4f 6fbd 9189 6d3d 341a aabc
000001e0: b7aa 8f3c a8c7 fe3d ac2d 8cbd 8b9b b43d
000001f0: 33dc e63c 969c 963d 8f0f e83d 34cd 50bd
-0.049754295 0.01208432 0.09410894 0.0038749434 -0.052891113 0.005755776 -0.06309634 -0.064193465
0.046720706 -0.0041711195 -0.023311244 -0.06919979 0.093166165 0.07721965 0.10559098 0.04377088
0.1039854 -0.055262975 0.071281716 -0.061455507 -0.04829129 0.047536217 0.06626681 0.0955371
0.052269332 -0.009266497 -0.051448975 0.054857727 -0.061967537 -0.033683285 -0.04788673 0.11980065
-0.050141677 0.10609555 0.0033575096 0.048163753 0.10450603 0.042407192 -0.027890975 0.07709033
-0.006365776 0.10477226 -0.050665714 -0.029960644 0.0713665 0.07073768 0.05449367 -0.018714368
0.098272435 0.048604317 0.05085282 -0.034411527 0.087512866 0.10395156 0.12567684 -0.020733742
0.06569265 0.115229644 0.031141981 0.10429106 -0.04375424 0.04137654 -0.03594763 -0.056151357
0.053105578 0.02724652 0.03444955 -0.00800732 0.027081473 0.010524684 0.11892207 0.06062334
0.04563441 0.08540984 0.09226225 0.030817684 -0.059320923 0.044344828 0.112672694 0.118966244
0.0030948075 -0.022754341 0.062979564 0.062293876 0.09598073 0.007796552 0.04561691 0.029596932
0.11848203 -0.03191028 0.053545017 0.09959885 0.04212628 0.0114822695 -0.023242323 0.047226336
0.08427763 0.028817235 -0.025145348 0.06556607 -0.04191766 0.08422792 0.120861575 0.07144054
0.037845038 0.12333281 0.022155078 0.036725342 -0.015023018 0.09776666 -0.019913336 -0.023513447
0.07052802 -0.023327276 -0.0038399054 -0.00037411545 0.00079862325 -0.05842542 0.05799252 -0.020764448
0.017537458 0.12440425 -0.06844649 0.0881873 0.028181171 0.07354085 0.113310926 -0.050976947

linearSequential.8.weight f4 [64, 128]
00000000: 7edb 9abd c70c 7f3d dfab 393d 06ee 97bd
00000010: e71b 09bd 7a83 00bd 5a04 503d fc6e f93c
00000020: 9122 96bd e491 69bd 4190 48bd 3bd7 0e3d
00000030: 28e8 8e3d 5fd0 5f3d 1e8f 0f3d e3aa 95bc
00000040: 98d7 94bd 90b1 0f3d 0517 96bd f3fb 89bd
00000050: 8055 8fba 14b7 743d 1688 2a3d 50eb 313c
00000060: 487b 963c 9842 45bd f060 9bbb ddeb 18bd
00000070: adb4 3fbd 5822 b43c 55f6 3fbc 12a8 c03d
00000080: 2f52 8a3d a03a 7ebd 4748 df3c bed6 d13a
00000090: 6aef 62bd a364 313c 9c98 cabc a884 e7ba
000000a0: 110f c1bd adeb 9d3d 8554 933d 9cfc cbbc
000000b0: 56f2 52bc e994 de3b a77c 98bd c434 b9bc
000000c0: f9e2 ba3d fde7 a4bd d7a6 47bd d27b 513d
000000d0: 91cd b23d f076 6e3d 1cf1 9d3d df1d c93c
000000e0: d4d7 75bd 60e8 983d 2aa5 a0bd f183 8b3d
000000f0: c610 1f3d ecd6 b83c f617 7d3d ea6f 15bd
00000100: 0060 c83d 18f9 9e3c 6fc6 8abd 94fc 8b3c
00000110: 32d0 b9bd d052 e8bb 5fde 70bd 6b8c ca3d
00000120: 3da0 a63d 1d91 32bb d89c 1c3d c80a c13d
00000130: 7ff4 8bbc b9e5 a63a be91 bc3d c3eb c23d
00000140: c1b4 10bc 2618 70bd a87d aebb 7f69 753b
00000150: 3f3a 82bb 2679 4fbc 958d 3abb b54b 6aba
00000160: 4272 c7bc 6d5e 17bc 10ed d93c 8c34 62b9
00000170: 72b4 2a3d e596 d03d 4794 89bd eaf0 163d
00000180: 0cab 683c 9789 a43d 8aac 853d b0ab 4dbd
00000190: ee14 5f3d 439b 93bd 1651 ba3d 9f23 543c
000001a0: 590a b4bd 6e20 72ba a291 9abd 3b4c 7bbd
000001b0: b9fc 8e3d d535 273d 6af5 2cbd 7964 b3bd
000001c0: b98c e7bb 407d 913b af59 60bc 13d8 483d
000001d0: 3728 363c f8f5 dd3c db6f e83c 6576 a43d
000001e0: b03a eb3c 6141 65bc b088 a5bd 4a69 c1bc
000001f0: ff41 bc3d f488 603d eaad 353c ac08 123d
00000200: dc4b 8cbd 6d7a 83bd dfe1 373d 8977 d8bc
00000210: e7e9 09bd decd 273c 0954 6abd 1da6 a63d
00000220: e1ee 1a3c 1601 3dbb 3c97 6b3d 1b44 ae3d
00000230: fa03 52bd d892 603d 1576 003c 84ed 243d
00000240: 6aa0 70bd 2e13 30bd 43a5 01bc 1456 b4bd
00000250: ebd0 b33d d1b7 0ebd 9ac6 d43d d4f9 953d
00000260: aba1 ac3d 1600 5bbd 0ed0 8d3d a31b 7abc
00000270: 817b 5bbd 8f77 a3bd 34b8 a13d a5e3 103d
00000280: 9c89 f6bc 704d c8bb 24d6 82bd 939a 34bd
00000290: fc92 ba3d e0f9 6dbd 6216 a93d 511a 133c
000002a0: f4f7 40bd 53d4 47bb 8eda 6fbd f6e9 f83b
000002b0: cbbe 123c 6d6d b43d 065a 94bc c452 8abd
000002c0: e14e 8c3c dc9c fd3c 43db 003d ee9a 2b3d
000002d0: 34fe 403d 1d6c 823b 7ffd 463b 4543 1abd
000002e0: 373f d03c 00f2 83bd f8c5 a63d 4128 ae3d
000002f0: 9339 0bbd dda8 29bd 576e 7cbb 8230 953d
00000300: a7b1 693c b92b 9f3d 334a a63d e1c4 9c3d
00000310: 1d49 c93c cdd9 98bd 2649 d53d 6e33 bf3c
00000320: b912 7abd 7061 c93d f45a 71bc a8d0 62bb
00000330: 94ba 4e3d f9b8 da3d 9cb6 353d 00f4 a93c
00000340: 31d0 cbbb a43b bebc f34a 003c 85db cc3d
00000350: ed44 693d f7a2 84bc b741 07bd 72f1 c2bc
00000360: 9409 10bd 28ec 343b 0598 683d 7014 ca3d
00000370: a0b9 303d c414 ebbc 77e0 49bc 3230 4a3d
00000380: 78c9 5ebc ed68 803d 27bd 8fbd 0c9a c53d
00000390: b68e 423d 4b31 193d 0a2f 6d3d ec25 b13d
000003a0: 5c6e b53d 51d6 e13d 14a4 a03c a312 a1bd
000003b0: 5ea2 f03b 66ca 203d a5b0 1abd e15d e3bc
000003c0: e55e d43c b49a 153c 6901 4fbd 6503 36bd
000003d0: e13a 6f3d 2b51 82bd 84a6 703d 197b 5ebd
000003e0: e9ab 1a3d 5e1f 143d 000b 103d ab4f 3bbd
000003f0: 5805 ad3d 7b55 e13d c343 94bc 17aa 6dbd
-0.07561396 0.062268045 0.045329925 -0.07418446 -0.033473875 -0.031375386 0.0507854 0.03044843
-0.07330812 -0.057023898 -0.048965696 0.03487323 0.06977874 0.054642078 0.035048597 -0.018269962
-0.07267684 0.035081446 -0.073286094 -0.067375086 -0.0010935515 0.05974491 0.041633688 0.0108593255
0.018369332 -0.048159212 -0.0047417805 -0.03733431 -0.046803165 0.021989033 -0.011716445 0.09407057
0.067539565 -0.062067628 0.027256144 0.0016009433 -0.055404104 0.010827216 -0.024730973 -0.0017663436
-0.09426702 0.07710967 0.07193855 -0.024900727 -0.01287516 0.006792654 -0.074456505 -0.022608168
0.09125323 -0.08052061 -0.048743095 0.051143475 0.08730615 0.058218896 0.077120036 0.024550376
-0.060020283 0.07466197 -0.078440025 0.06812275 0.038834356 0.02256342 0.06179043 -0.036483683
0.097839355 0.019405887 -0.067761295 0.017088212 -0.09072913 -0.00708995 -0.05880582 0.09890064
0.08136032 -0.0027247139 0.038235515 0.094258845 -0.017084358 0.0012733258 0.092074856 0.09517624
-0.008832158 -0.05861678 -0.005325038 0.0037446914 -0.0039742286 -0.012663161 -0.0028465737 -0.0008937673
-0.024346475 -0.009238821 0.026602298 -0.00021572615 0.041675992 0.10185031 -0.06717735 0.036850847
0.014200937 0.08034056 0.0652705 -0.050212562 0.05446332 -0.07207348 0.09097497 0.012947946
-0.08791036 -0.00092364 -0.075473085 -0.061351996 0.06981797 0.040822823 -0.042226233 -0.08759398
-0.007066336 0.00443998 -0.013693257 0.04903419 0.011117986 0.027094826 0.02837365 0.080303945
0.028714508 -0.013992638 -0.08082712 -0.023609776 0.09192275 0.05481811 0.011088828 0.0356528
-0.068504065 -0.06419835 0.04489314 -0.026424186 -0.033670332 0.010241954 -0.05720905 0.08137152
0.009456367 -0.0028839759 0.057517275 0.08509084 -0.051273324 0.05482754 0.007840653 0.040265575
-0.058746733 -0.04298704 -0.007912937 -0.088054806 0.08780082 -0.03484327 0.10389443 0.073230416
0.08429273 -0.05346688 0.06924449 -0.015265378 -0.05358458 -0.07981788 0.07896462 0.03537335
-0.030094914 -0.006112747 -0.063885 -0.044092726 0.09110066 -0.058099627 0.08256222 0.008978442
-0.047111467 -0.0030491545 -0.05855804 0.0075962497 0.008956621 0.08809934 -0.018109333 -0.067540675
0.017127456 0.030958585 0.031459104 0.0418958 0.047117427 0.0039801733 0.0030363498 -0.03766181
0.025420768 -0.06442642 0.08143228 0.085037716 -0.033990454 -0.041420806 -0.0038517916 0.07284643
0.014263547 0.07772011 0.08119621 0.07654739 0.024570996 -0.07463417 0.104143426 0.023339953
-0.06105301 0.09833038 -0.014731158 -0.0034609232 0.050470904 0.10679812 0.044363603 0.020746231
-0.0062198867 -0.023221798 0.007830369 0.100028075 0.0569505 -0.016190989 -0.033021655 -0.02379677
-0.035165384 0.002760658 0.056785602 0.098671794 0.043145776 -0.028696425 -0.012321583 0.04936237
-0.013597839 0.06270013 -0.070185 0.09648523 0.04749938 0.037400525 0.057906188 0.08649811
0.0885894 0.11027206 0.019609489 -0.07864883 0.0073435744 0.039255522 -0.037766118 -0.027754726
0.025924155 0.009131122 -0.050538454 -0.04443683 0.05840576 -0.06363138 0.05875255 -0.054316614
0.037761603 0.036162727 0.03516674 -0.045730274 0.08448285 0.11002632 -0.018098718 -0.05802354

linearSequential.8.bias f4 [64]
00000000: 11a6 1a3b 4054 cf3d 3990 48ba fc97 9dbc
00000010: 8f42 e2bc 3042 203b c166 13bd 8ed5 c8bc
00000020: 1c55 713c 3839 843d 8e47 983d 3285 ee3d
00000030: cb31 853d d253 403c d4cd 9f3c 2c87 8b3d
00000040: 6f6d f3bc 48ba 8c3d b2f9 d3bb e101 ecbc
00000050: ec3c c33d 11d7 63bd 4cae bbbc 78da b43d
00000060: b531 59bd 6f7c 9c3d d728 e83d 36da df3d
00000070: 9cd6 e4bd 916d 1ebd f3a5 86bc 04e4 2abd
00000080: ed24 95bd 65c8 dd3c 8c22 793d ccae fa3d
00000090: 98bd 003e d48e 913c 0998 ec3d 582b a0bd
000000a0: de67 433d a29b 45bd f2f8 b93c 7e09 c7bc
000000b0: 1c78 a83d 9cbc e73c f0bc c0bd 3b1e 5b3d
000000c0: ed01 88bd 6100 cd3d 0742 bbbd 5280 af3c
000000d0: 9837 98bc 901e 0cbc 83e2 f13d c2c3 8dbd
000000e0: 7c1f 833d 28e6 6bbd e0a6 1abd 8d8e b0bc
000000f0: 5c75 e93b 7059 613d 669b e03c 9e0b 86bd
0.0023597518 0.10123491 -0.00076508854 -0.01923751 -0.027619628 0.0024453513 -0.035986666 -0.024515893
0.014729764 0.06456226 0.07435523 0.11646499 0.06503638 0.011738734 0.019507326 0.06812891
-0.029715268 0.06871468 -0.006468975 -0.02880949 0.09533104 -0.055625025 -0.02291026 0.08830732
-0.05302592 0.07640921 0.113359146 0.10930292 -0.11173746 -0.03867871 -0.016436553 -0.04172136
-0.07282434 0.027073095 0.060823962 0.12240371 0.12572324 0.017768301 0.11552436 -0.07820767
0.047706477 -0.048244126 0.022701714 -0.024296518 0.08226034 0.028288178 -0.09411037 0.053495627
-0.06640992 0.10009838 -0.09143453 0.021423493 -0.018581197 -0.008552209 0.11810782 -0.069221035
0.064024895 -0.05759254 -0.0377568 -0.021552349 0.007124586 0.055016935 0.02741785 -0.065451846
