output/wl0/state_dict.pt (torch, 840245 bytes, 15 tensors)

linearSequential.0.weight f4 [64, 6]
00000000: 5d20 a03e 091b a6be 0b30 cabc d272 bb3e
00000010: a103 f13c 238f a0be a449 cebe 8fe4 a03e
00000020: 534d 8dbe f73e c6bd 66ed c9be 6f88 b53d
00000030: 7ac0 68be d427 adbd 8ec5 f93d 1ece e9bd
00000040: 203b 27be 9114 b8be fd1a 9cbe babd 8b3e
00000050: ae34 99be ec8a b23e e69a a83e 3591 5ebe
00000060: 6b49 9abe 2fc9 1d3e 8694 3b3b d52a 9b3d
00000070: b790 9cbd bd9f 8a3e ab98 bb3e bdf7 243c
00000080: 17f6 d73c 4f52 7b3e c8d7 963c 9113 323d
00000090: baf0 83bd 3138 933e f1fb 4fbe 0a04 9f3e
000000a0: f0bf bfbd f969 ac3e 6bb7 623e 1ba5 78be
000000b0: f1c1 b83e 26a5 7e3e 495f a13e c592 2c3e
000000c0: 3746 79be 577d a13c be90 11be b3c0 873e
000000d0: 2340 a13e a0bb b53d df4d e3bc 21c2 4ebd
000000e0: 4f8e ca3c 07da 6c3e 0663 4d3d d1f7 883d
000000f0: 65dd e5bc 2eb6 663d fd50 2fbe 4dca bebe
00000100: bf9a 9bbe b74b 303d 8062 583e 9df1 41bd
00000110: a4be bebe 2665 133e 93cf 8a3e 9cae 5ebe
00000120: 5264 303e ed24 8dbe c775 b03e 7766 85be
00000130: 7c89 b3be bd65 23be 8dc6 863e 3786 503e
00000140: a179 a8be d2c9 8f3e 331f 09be decf 3abd
00000150: 4f54 d13e 1c93 04bb c941 743d 91b2 833e
00000160: f8b0 61bd c309 aa3d de5f 9cbc d307 643e
00000170: b2b2 933e 3977 85be 6084 883e b06c d1be
00000180: bf46 c0be 7b64 c43d a8fb adbe ea3f e03d
00000190: f3da 473e 1ba2 4f3e 7ca7 a33e 0c39 68bd
000001a0: 3f8c acbe de63 45be 07bf e13a 008b babe
000001b0: 68db a0be c1b8 733e 11e9 7ebd 0220 b3be
000001c0: df4b 3d3d 8765 7b3e f91d cfbe 0457 a8bd
000001d0: ea68 d3be 9f24 7fbe ac28 75be 9ef0 42be
000001e0: 4653 033e 58b5 febd b0b4 c63e 9a91 8b3d
000001f0: b5c7 753e 6b07 403e e0de 64be 04cd 933e
00000200: e8b5 a8be 189c 423e d633 a23e eb92 b13c
00000210: 0fa3 8a3e e76b 91bd a250 833e 2a42 5abe
00000220: 3460 35be b6b7 b7be 6d35 1dbe fb2d 843d
00000230: dd30 7ebd 4140 32be f02f 003e 193c d13e
00000240: a290 c93e 624a 9dbe 5d41 70be 82a6 6d3e
00000250: 58a6 9e3e 16ad b23d 433b 683e 9a46 273e
00000260: 5828 af3d 65ae 9ebe 4ecb 44be 4cd1 b13e
00000270: 3cb0 9b3e 2650 dd3c 9710 073e bf9a 813e
00000280: f6b1 5e3d 3234 ce3d 32c9 b5be 9f5e a7be
00000290: 843f 583d f3ec ddbd 63ce 77be 89b3 b23d
000002a0: dc3f 90be 6fd6 42be 88dd 9f3d c0dc dd3c
000002b0: fe17 a93e 6c5d 46be 80dc b0be f274 78be
000002c0: 6fc1 523e 01d8 0e3d 26ca c0be edd0 be3e
000002d0: cdaa cd3d fce4 f1be 0a2a fabc 1eb6 92bc
000002e0: b170 5f3d 1014 b0be f114 adbc 05ef 743e
000002f0: e470 1e3d 1791 9d3e 6c11 953e 31fd 8cbe
00000300: ee36 94be 0e20 79be fe06 a23d 145d 9f3d
00000310: 75ed d33e c2f7 dc3e df4f cebe 28cf c33d
00000320: 4ab5 adbe df50 3b3d f024 cc3e bf08 a8be
00000330: a827 30be 09de 90be 97e8 73be 25fc de3a
00000340: ee00 8f3e b13e a03e 9d87 a03e 6162 d2bd
00000350: 74b7 c43e 2449 86bd c9ea 4c3e 8da3 983e
00000360: ed6d 47be 256e c33c 700f b3bd 95ed d23e
00000370: 5bd6 a9be e365 b23e 062d 05be 0e3f babd
00000380: 9655 ce3e 4061 3c3d 4d5d d3bc 3531 ccbe
00000390: bc05 9c3d f4f3 c8be 712d 223e 0176 bbbe
000003a0: c714 4d3e f11b 17be 9ef2 1b3e e431 54be
000003b0: 2922 123e 7b9c 673e cacb b53d bc57 a2be
000003c0: b710 4d3e 2ae0 263e f23b a53b 21ff 25be
000003d0: 5931 e93e a36c a03e 1d9f babe e57f dc3d
000003e0: f501 82bd 314f abbd d903 c13e 2986 853e
000003f0: 5ec3 163e 2536 9b3e 6c5b ad3e 79ae b4be
0.3127469 -0.324425 -0.024681112 0.36611038 0.029420676 -0.31359205 -0.40290558 0.31424376
-0.27598056 -0.09679978 -0.39438933 0.08863913 -0.22729674 -0.08454862 0.12195884 -0.11416267
-0.16331148 -0.3595319 -0.3048934 0.27293187 -0.29923004 0.34871614 0.32930678 -0.2173508
-0.30134138 0.15408777 0.0028622462 0.07576529 -0.0764479 0.27074996 0.36639914 0.010068831
0.026362462 0.24543117 0.01841344 0.04347569 -0.06442399 0.28753808 -0.20310952 0.3105777
-0.09362781 0.336746 0.22140281 -0.24281733 0.36085466 0.24867687 0.3151801 0.16852863
-0.24343191 0.019713087 -0.14215371 0.26514205 0.31494245 0.08873677 -0.027747093 -0.050478105
0.024726061 0.23130046 0.050143264 0.06687892 -0.02805967 0.056326084 -0.17120738 -0.37263718
-0.303915 0.043040957 0.21131325 -0.04734956 -0.37254822 0.14394054 0.27111492 -0.21746296
0.17225769 -0.27567235 0.34464857 -0.26054737 -0.3506583 -0.15956779 0.26323357 0.20363699
-0.32905295 0.28083664 -0.13390808 -0.045608394 0.40884635 -0.0020229286 0.05963305 0.25722173
-0.05510041 0.08302643 -0.019088682 0.2226861 0.2884727 -0.26067522 0.26663494 -0.40903234
-0.37553975 0.09589478 -0.3398106 0.10949691 0.19517116 0.20276682 0.31963718 -0.05669503
-0.3370075 -0.19276378 0.0017223068 -0.36434174 -0.31417394 0.23800947 -0.06223399 -0.34985358
0.046214934 0.24550448 -0.40452555 -0.08219722 -0.4129098 -0.24916314 -0.23941296 -0.190371
0.12824735 -0.12436932 0.3880973 0.06814881 0.24001963 0.1875283 -0.22350645 0.28867352
-0.32951283 0.19004858 0.31680173 0.021676501 0.2707753 -0.07100659 0.25647455 -0.21314302
-0.1771248 -0.35882348 -0.15352412 0.064540826 -0.06205832 -0.17407323 0.12518287 0.40866163
0.3936816 -0.30720812 -0.23462434 0.23208049 0.30986285 0.0872442 0.22678857 0.16335526
0.08552617 -0.30992427 -0.1921818 0.34729993 0.30407894 0.027015757 0.13189922 0.25313374
0.054368936 0.10068549 -0.35505062 -0.32689378 0.05279495 -0.1083621 -0.24199824 0.0872565
-0.2817372 -0.19027112 0.078059256 0.0270828 0.33026117 -0.19371575 -0.34543228 -0.24263361
0.20581602 0.034873966 -0.37654227 0.37268773 0.10042343 -0.47245014 -0.030537624 -0.017909106
0.05455083 -0.34390306 -0.02112815 0.23919304 0.03868188 0.30774757 0.29114854 -0.2753692
-0.28948158 -0.24328634 0.0791149 0.07781425 0.41392103 0.43157774 -0.40295312 0.09560996
-0.33927375 0.04573142 0.3987193 -0.32819173 -0.17202628 -0.282944 -0.23819195 0.0017012401
0.27930397 0.3129783 0.31353465 -0.102726705 0.38421214 -0.06556919 0.20011438 0.2981228
-0.19475527 0.023856232 -0.08743179 0.41196886 -0.33171353 0.34843358 -0.13005456 -0.09094058
0.40299672 0.045991182 -0.025801325 -0.39881292 0.07618281 -0.3924862 0.15837647 -0.36613467
0.20027457 -0.14756753 0.1522927 -0.20722157 0.14270844 0.22618286 0.0887676 -0.3170756
0.20025907 0.1629645 0.0050425464 -0.16210605 0.45545462 0.31332883 -0.3644952 0.107665814
-0.063480295 -0.08364714 0.37698248 0.2607892 0.14722964 0.30314746 0.33858812 -0.35289362

linearSequential.0.bias f4 [64]
00000000: de09 fdbd ae59 c8bc 0e09 38be 4ce4 493e
00000010: 9799 bcbe 81c1 1bbe eafd 7ebc 3956 713d
00000020: b05a 2c3e b2b6 373e 39b5 88be 1c88 9abe
00000030: 9de1 c73e 15b1 c93e d8ec b93e f44d c0be
00000040: 615a babe ea76 ecbd d8f9 aabe 0f72 56bc
00000050: d1f1 7c3e fd3c c9be d6c5 f03e 5ecb e93e
00000060: 1de3 aebd f865 fd3e 9f1e 413e 115b ecbd
00000070: f1f4 d8bd 02e6 b5be 7f96 b5be f91e 52be
00000080: 92a5 f3bd bce5 b9be 59d6 b3be 1905 45bc
00000090: 5307 7ebe af5d d33d 7c88 a1be 075a d43d
000000a0: 9d74 243d d30a 48be 1469 6cbe d535 683d
000000b0: 6823 693e e873 d13e cf68 893e a180 dd3e
000000c0: 6320 013f baf9 cbbe 7c9a 813c e645 68be
000000d0: 3cc0 e63e fbb7 e83e 7e19 543e 2eed 50bd
000000e0: 2232 71be e263 e03d bc80 cb3e 4841 9a3e
000000f0: 4511 cd3e 5828 973e c09c 88be d8b4 e93d
-0.12355398 -0.024456825 -0.17972204 0.19715995 -0.3683593 -0.15210535 -0.0155634675 0.05892012
0.1683147 0.17940786 -0.26700762 -0.30181968 0.39039317 0.39392915 0.3631351 -0.37559474
-0.3639708 -0.115461186 -0.3339374 -0.013088717 0.2470162 -0.39304343 0.47025937 0.4566297
-0.08539412 0.49491858 0.18859337 -0.11540807 -0.10593594 -0.35527045 -0.35466382 -0.20519628
-0.118968144 -0.36308086 -0.35124472 -0.012025141 -0.24807481 0.10320603 -0.31549442 0.10368734
0.040150274 -0.19535379 -0.23086959 0.056691963 0.22767413 0.40908742 0.26837775 0.432622
0.50440043 -0.39838964 0.015820734 -0.22682914 0.45068538 0.45452866 0.2071285 -0.051007442
-0.2355428 0.10956551 0.39746654 0.3012793 0.40052238 0.29522967 -0.2668209 0.11411446

linearSequential.2.weight f4 [512, 64]
00000000: cf8f a13d 7a82 69bd 1e47 fbbd cb6f dfbc
00000010: 23ea e83c f29d 9c3b 1beb 263d b656 163d
00000020: 3516 0d3e d5da 1f3d 655b 95bc 8808 b2bd
00000030: 1628 3d3d 5e43 b23d 30b3 f83d 5630 b63c
00000040: 8920 f3bd 0b5f f0bd 3ae7 7f3d 5c97 a9bd
00000050: a89f 863d 878a af3d 37bc 85bc a532 a53d
00000060: 702e 8b3d 86ea c93d 9a9b 03bd 859a 103d
00000070: 8780 a33d c4e2 8c3d 8306 8ebd e5e2 b13d
00000080: f76c b93d 88c7 fd3c 017f 05be cdd7 a8bc
00000090: 1fca c83d 3d12 d5bc 08cd 02be 54bf 00bc
000000a0: ac50 27bd a6c8 833d ec5e 5b3c 33bd c3bb
000000b0: 280d 1a3e edab 333d 0874 a0bc adb7 273e
000000c0: 4445 863d 7ec4 fcbd a9a2 853d cad1 25be
000000d0: d03f ae3d 061b 183e 8840 153d ea13 393d
000000e0: 012e fb3d 48bb b5bc 9c3f 89bd 69a7 0fbc
000000f0: f76a 4a3d 9a59 81bd 926d ebbd 3128 62bd
00000100: 8765 81bd a377 403b 96f1 a3bd a390 5e3c
00000110: 86be bfbd 4388 963d 39a5 c6ba 86f6 f23d
00000120: 937a ea3d 8623 42bd 48ae c7bd 2963 3f3d
00000130: b7b0 033e ef7b c6bc fa49 3b3e d5af c4bd
00000140: c1e2 9abd 4433 44bc eb92 f23d 27b3 883c
00000150: 861d c23d b184 83bc 4d95 213e 17ce 953d
00000160: 8408 4b3d 0b83 75bd 0756 353d bc1c ddbd
00000170: fc71 5fbd b2de 0ebe a00f bb3d f014 cbbd
00000180: 908a 773d b147 cfbd d66e 583d 57ec 063d
00000190: 4511 c23d 5ca3 c5bc a4c4 bb3d 3e0b 173e
000001a0: 284e 8839 acb5 a03c 279a 543d fdf9 043e
000001b0: 5cf1 8abd 69ea ecbb c5ad e03d a301 2f3e
000001c0: b80e 2a3c 3dac a43d a4f8 223d abb0 593d
000001d0: 1f01 b2bb 4e94 113e 033d 57bc 3e44 b93d
000001e0: d494 b83d 4b3f bc3b ab1e 033e bdd4 173b
000001f0: 8b12 1d3e a18e 9e3c ed9c 6f3d 2c2f 80bc
00000200: 38a0 263d 9770 1d3d 1b99 013d 4503 e5bc
00000210: c14b 353d 6633 bb3d d97c a63d d7fa 0a3e
00000220: 1970 bf3d 6c42 9b3a 3976 2bbc 83ab d1bd
00000230: 0262 0c3e 9b85 34bc 0670 033e 8294 963d
00000240: 8cb0 713d 9a6f ee3d 2da4 c3bc 2422 16bd
00000250: bac2 2e3e 96ea c5bd 0c80 91bd 8d1a 003e
00000260: 2bd4 c4bc 2074 aebd a999 f5bc ccf2 283d
00000270: b29e fcbd 5571 3c3d 86d8 75bd 1412 0cbe
00000280: efb6 83bd ea8c a73d b3e5 5f3d f6ef 8ebd
00000290: c73c 6f3d c854 fc3d 6986 7d3d 6a6f 66bd
000002a0: 437a b9bc f469 bebd b16d 853c 5da2 c43c
000002b0: 8b3e fabc 48bb a93d 43b8 94bd af88 5c3d
000002c0: f5f5 273d fac5 d93d 3b59 e53d 92c2 e83c
000002d0: 4a05 763d d17e c9bd 87ce 8abd d351 96bb
000002e0: ac9a 96bd c3b1 f63c 0103 163d bd93 e63d
000002f0: 5799 073e 049c e3bb 673f 8cbd 72f0 1bbd
00000300: f6fc ca3d cc55 1bbc c82a 43bd 629e 0e3c
00000310: 1018 7a3d 9229 e2bc 3260 8ebd 73b3 093e
00000320: e5f5 cb3d 6f8c 84bd 8f34 01be cd55 a6bb
00000330: e7a9 6a3c 1436 d43d 644d 873d 41a1 03be
00000340: 1156 3e3d c8bb 28bd 3209 90bd 080f 523c
00000350: c808 0c3e f9e0 b3bc 476e 203e 8c71 36bd
00000360: 6515 f6bc c69c 2f3e 02ce 60bd 5c66 a83d
00000370: 2f79 4dbd 2dfb 193d dc05 233d 9cb1 09be
00000380: 2dbf e63d a024 80bd f809 f4bd 9f70 e63d
00000390: 59de a5bd ae9b 8cbd eae9 223d 3e57 003e
000003a0: bab6 4b3d e921 6f3d 3765 3d3b 0fec 073d
000003b0: 075f 0a3e 1755 313e 37ac af3d b7c8 143e
000003c0: 4bf4 b43d 374b 613d 0bf8 5a3d 5cdb b5bc
000003d0: 457c c63c 3197 1e3c 52e3 1f3e 9341 01be
000003e0: 0c2b 873c 6303 b1bd 7677 03bd f7a8 ad3c
000003f0: 605b 103e 61e7 5cbd 601e 5c3c 265b cebd
0.078887574 -0.057009198 -0.12269424 -0.027274987 0.028431958 0.0047795707 0.040751558 0.036703788
0.13778003 0.039027054 -0.018232057 -0.086930335 0.046180807 0.087042555 0.12143552 0.022239845
-0.1187144 -0.11736878 0.062476374 -0.08280823 0.06573421 0.08571344 -0.0163251 0.080663
0.067959666 0.09859185 -0.032130815 0.03530361 0.07983499 0.068791896 -0.06934836 0.08685855
0.090539865 0.030978933 -0.1303673 -0.020610714 0.098041765 -0.026009673 -0.12773526 -0.007858116
-0.04084842 0.06434755 0.01338933 -0.005973482 0.15044081 0.043865133 -0.019586578 0.1637866
0.0655618 -0.123421654 0.065251656 -0.1619331 0.08508265 0.14854059 0.036438495 0.045185007
0.12264634 -0.02218403 -0.06701586 -0.008767941 0.049418416 -0.06315918 -0.11495508 -0.05521411
-0.06318193 0.0029368184 -0.08005063 0.013584289 -0.09362511 0.073502086 -0.0015155441 0.11863427
0.114491604 -0.04739716 -0.097500384 0.046725426 0.1286038 -0.024229018 0.18289939 -0.0960385
-0.07562781 -0.011975113 0.11844429 0.016686989 0.094782874 -0.016054483 0.1577961 0.07314699
0.049568668 -0.059939425 0.044271495 -0.10796496 -0.054552063 -0.13952139 0.091338396 -0.09916103
0.060434878 -0.10121096 0.052840076 0.032940235 0.0947595 -0.024125747 0.091683656 0.14750382
0.00025998172 0.019617878 0.051904824 0.12985988 -0.06784317 -0.0072300923 0.10970644 0.17090468
0.010379486 0.08040664 0.039787903 0.053147 -0.0054322626 0.1421673 -0.013137105 0.09046219
0.09012762 0.00574485 0.12804668 0.0023167573 0.15339105 0.01935512 0.058499265 -0.015647493
0.04068014 0.038437452 0.031640153 -0.02795566 0.044261698 0.09140663 0.081292816 0.1357225
0.09347553 0.0011845357 -0.010465198 -0.102377914 0.13709262 -0.011018182 0.12835702 0.07352544
0.05900626 0.1164238 -0.023881996 -0.036653653 0.1706647 -0.09663884 -0.07104501 0.12510128
-0.02402695 -0.08518243 -0.029980497 0.041247174 -0.12334956 0.04600652 -0.060020946 -0.13678771
-0.06431376 0.08181174 0.054662418 -0.06979363 0.05840757 0.12320858 0.06189576 -0.056258596
-0.022641307 -0.09297553 0.016287657 0.024003202 -0.030547401 0.08287674 -0.07261708 0.05384129
0.041006047 0.10633464 0.1119866 0.02841309 0.060063638 -0.098386414 -0.06777673 -0.004587391
-0.0735372 0.03011406 0.03662396 0.112586476 0.13242088 -0.0069460887 -0.068480305 -0.038071103
0.0991153 -0.009480905 -0.04764822 0.008704754 0.061058104 -0.027607713 -0.069519415 0.1344736
0.0995901 -0.06472098 -0.12617706 -0.005076146 0.014322734 0.10361877 0.06606558 -0.12854482
0.046468798 -0.041194707 -0.07033004 0.012820967 0.13675225 -0.021957861 0.15667067 -0.04454188
-0.030039499 0.17149648 -0.054883964 0.082226485 -0.050164398 0.037593056 0.03980051 -0.13446659
0.11266933 -0.06256986 -0.11915964 0.112519495 -0.0809905 -0.06865631 0.03977386 0.1253328
0.04973481 0.05838195 0.002889944 0.033184107 0.13512813 0.17317615 0.08577769 0.14529692
0.08835658 0.05500337 0.05345921 -0.022199325 0.024229178 0.0096796015 0.1561406 -0.12622671
0.016500019 -0.08643224 -0.03209635 0.021198733 0.14097357 -0.053931598 0.013434976 -0.10075979

linearSequential.2.bias f4 [512]
00000000: 4ebe f53d bdff 493e 139c da3d 065a cd3d
00000010: c5a9 503e b19d ba3d 5a0a abbd a050 92bd
00000020: b9c7 6e3d 0800 ba3d 9907 903d 65d3 0c3e
00000030: c49f 68bd ae7f a7bd 720c 9b3d 0234 2f3e
00000040: 6848 1abd dee3 bfbd 03fb 2c3e fb7c d1bc
00000050: 8f3d ff3d 5fb5 053e ed95 b5bd b583 2d3e
00000060: 221c c93c f353 d13d 6d1c 4f3e a2a2 9b3d
00000070: bdfa 043e 88fe 683d 96ac dfbc 9a0b 02bd
00000080: 727c 86bb 87c7 313e f0a2 8cbd ee30 b43d
00000090: 1336 b43d 2fb4 9db9 aa50 f3bc 2d8f 8dbc
000000a0: 2725 5b3e c02c 213e 38b1 f3bc 6d31 043e
000000b0: 9fdd c3bc 2197 89bc 18e5 06bd 39cc 403e
000000c0: 66df e03d 1b5b 4c3e ff34 f03d 9226 0d3d
000000d0: f36e b33d 823a 8b3c 4094 56bd 7a38 b8bd
000000e0: 6237 013d 367c 433d d591 0c3d b2c3 d8bd
000000f0: 3e61 c9bd 3397 973d 8009 8d3d 5687 6ebd
00000100: 1d4d 07bc 54fc 333e e6a0 173e f539 4dbd
00000110: 195c 75bc de73 323e c9d3 a43d 730d 9fbb
00000120: 83e6 5fbc 9f44 0c3e d0d3 2e3e 1f66 a93d
00000130: 4bbd 113e 0c70 c73d eaa5 8dbd 7ca3 923d
00000140: ee7a 263d 1797 fa3d ad20 0c3d b768 92bd
00000150: c5ba 563d 8d65 203e c094 1d3e 6c42 393e
00000160: b927 203e 50e1 033e 3db2 f43c 470b d93d
00000170: 8a4d 013e b102 193d 5ce5 a7bd 7bbf 343d
00000180: 9b0c 523d ee38 243e 9d5f 2c3e 9ee8 b83d
00000190: 13d9 853d da9c 9b3c 8510 133d 2694 fa3d
000001a0: b093 dc3b 387b f73c 01ca 1ebd ce92 423e
000001b0: bd79 473e 403e 7a3d f6eb 413e 9e0f edbc
000001c0: dbb6 3f3e 0fc0 9bbd b9f5 8a3d bdaf 413e
000001d0: e2b2 bf3b 975e 9d3d 50df dc3d 43ee e13d
000001e0: d65c c2bd 375c fb3d ab5b 333e fd82 03bd
000001f0: 77a5 1c3e a946 ed3d a858 8dbd f161 173e
00000200: 8de8 4a3e 4976 f73d 2e8c 0a3d aca2 d73d
00000210: 9dc0 353e 8368 2a3d 5375 f73c 46fe 403e
00000220: b236 cdbd 20e0 283e 4bb7 edbc 7a11 8d3d
00000230: 4c1b 183e 4689 0d3e b32b 203e 3f00 073d
00000240: 08f7 233e 1db8 273e caa4 8f3d 4aa3 79bb
00000250: 45f3 9fbc 3170 393e 9fef ec3d c90a c63d
00000260: b6fb ca3c 11da 223d c7e7 ca3d 78e7 6e3d
00000270: b0cf 063e eeba d93c 518a b9bc d252 e53c
00000280: 020b 6d3d 52c1 3a3e e875 e33d 58a0 16bd
00000290: 1809 503d 6b88 553d 3bcc 813d 39ca ee3d
000002a0: 94ed c03d f10e 313e 081e 37bd 747f 033d
000002b0: f148 043d 3b6d 523e d1de 163d c6f4 f7bb
000002c0: c0bf 2c3e f5fd 29bc af62 40bd 8561 a8bd
000002d0: c79d 1cbd b297 26bd 6120 e33c 7951 7a3d
000002e0: 366d 2d3e 8a1d 1e3e 6b9d 183e d5e8 3c3e
000002f0: c7f3 4a3e 1a4d a33b 97c0 c53d dadd 383e
00000300: b7d4 2b3d 8bb2 89bd 91a7 313e e2eb 003d
00000310: 3867 a83c 7f8d b63d 1717 373e 0825 0fbd
00000320: 0271 8f3d 6cdc e4ba bbb1 803d f8a0 a23c
00000330: e551 a4bc a59b 763c bad4 103e ac0c 1e3c
00000340: bb78 233e 4ba2 273e 5057 4e3c 63e8 403e
00000350: 418d 3abd 8130 b5bc 0cc3 b93d e7ef 253d
00000360: 635d 823c fb0b 0fbd 8780 353e 5223 b73d
00000370: fcfe e53c f74c 4dbd 8544 ba3d 994e 963d
00000380: f6fa cebc d47e 0c3e b374 313e a024 243e
00000390: d236 d8bc d1e3 e93c 7970 a23d 3c63 05be
000003a0: f7ff 4ebc f8be b73d aabe 273d f5f5 003e
000003b0: c4f4 29bd 0081 0b3e 9bd1 973d 7c30 b5bd
000003c0: ae11 6e3d 82ed 483d fe05 59bd c00e ea3d
000003d0: b1ad 47bd fa9f 213e 6da1 183e be34 4f3c
000003e0: 874c b63d a8ab 60b9 ae1d 1c3e 55e5 083e
000003f0: d3fa 30bd 7e55 b93d c461 163e a4c9 2f3e
0.11999188 0.19726463 0.106743 0.10026936 0.20377262 0.091121085 -0.08351584 -0.07144284
0.05829594 0.09082037 0.07032699 0.13752516 -0.05679299 -0.0817865 0.07570733 0.17109683
-0.03766671 -0.09369634 0.16892628 -0.02557229 0.12462913 0.13057469 -0.08866487 0.16944773
0.024549548 0.1022109 0.20225687 0.07599379 0.12986274 0.056883365 -0.027303975 -0.031749345
-0.0041041905 0.1736127 -0.06867015 0.08798395 0.08799376 -0.0003007962 -0.02970155 -0.017280186
0.21400891 0.15739727 -0.02974759 0.1290948 -0.023909388 -0.016795697 -0.032933325 0.18827905
0.1098011 0.19956629 0.11728858 0.03446061 0.08761396 0.016995672 -0.052387476 -0.08995147
0.031546958 0.04772588 0.034318764 -0.10584201 -0.098330006 0.07401886 0.068865776 -0.058234535
-0.008258131 0.17576724 0.14807472 -0.0501041 -0.014975571 0.17427012 0.08048207 -0.004853898
-0.013665798 0.13698052 0.17072988 0.08271431 0.14232366 0.09738168 -0.06916411 0.071600884
0.04064458 0.12235849 0.03421085 -0.07148879 0.05242421 0.15663739 0.15388775 0.18091744
0.15640153 0.12878919 0.029870147 0.10597854 0.12627235 0.037356082 -0.08198044 0.044127923
0.051281553 0.16037342 0.16833349 0.09028743 0.06535544 0.018995691 0.035904426 0.12235288
0.006731473 0.030210122 -0.038766865 0.19001314 0.19480033 0.061094522 0.18937668 -0.02893811
0.18722098 -0.07604992 0.06785149 0.18914695 0.005850182 0.07684057 0.10784781 0.11031773
-0.09490363 0.12273448 0.17515437 -0.032107342 0.15297495 0.11585743 -0.069016755 0.14783455
0.19815274 0.12083108 0.033825092 0.10529074 0.17749257 0.041603576 0.030207312 0.18846998
-0.10020198 0.16491747 -0.029018065 0.06888099 0.14854163 0.13821897 0.1564167 0.03295922
0.16012204 0.16378827 0.07013853 -0.0038091713 -0.01952518 0.18109204 0.115691416 0.09670026
0.024778228 0.039758746 0.09907489 0.058326215 0.13165164 0.026578393 -0.022648962 0.027993593
0.057871826 0.18237808 0.11106473 -0.03677401 0.050789922 0.05213205 0.06337782 0.11659665
0.094203144 0.17290856 -0.044706374 0.03210397 0.032296125 0.2054948 0.036833588 -0.007567021
0.16870022 -0.0103754895 -0.046969112 -0.082217254 -0.038236406 -0.04067201 0.0277254 0.061112855
0.16936192 0.15440956 0.149038 0.18448193 0.19819556 0.0049835565 0.09655874 0.1805338
0.041950908 -0.067235075 0.17349078 0.031474955 0.020557031 0.08913707 0.17879902 -0.034947425
0.070039764 -0.001746071 0.062838994 0.019852147 -0.020058582 0.015051757 0.14143649 0.009646576
0.15964024 0.16370504 0.012594059 0.18838648 -0.045544866 -0.022117855 0.09070405 0.04051199
0.01591367 -0.034923535 0.1772481 0.08942284 0.028075688 -0.050122228 0.090951 0.0733921
-0.025266152 0.13720256 0.17329673 0.16029596 -0.026393328 0.028551014 0.07931609 -0.13026136
-0.012634269 0.08971971 0.040953316 0.12593825 -0.041493192 0.13623428 0.07413026 -0.08847138
0.05812233 0.04905463 -0.05298423 0.114285946 -0.04874963 0.15783682 0.14905329 0.012646852
0.08901315 -0.00021426252 0.15245697 0.13368733 -0.043207955 0.090495095 0.14685732 0.17166764

linearSequential.4.weight f4 [256, 512]
00000000: 6fed 01bd 0b25 25bd 6f68 503c 97d2 e43b
00000010: b5d0 fb3c bac5 1ebd 95cb d8bc 489a bdbb
00000020: 3487 cb3b acd5 18bc 18ff 033d 7c96 0b3d
00000030: 972a 06bd bd5b 253d 40b1 1c3d 4009 ac3c
00000040: 15e3 29bd e3db 07bd b930 a93c 4d4b 923c
00000050: 9fe8 93bc f471 98bc 6d52 99bc 3937 0fbd
00000060: e725 a03b 50f6 05bb c65f 75bc 1516 0cbd
00000070: 1511 46bd ff00 973b 03c7 22bd 3bc8 f33c
00000080: 941e c03b 0e34 42bc dbf9 cc3c b8f4 1a3d
00000090: 7366 e5bc 2bf9 a13c a384 dcbc 041d 493c
000000a0: ba20 f33c a507 d5bc 1414 753c 6e00 bb3b
000000b0: 05e7 9dbb a3f5 53bd d211 d03c cb19 78bc
000000c0: a388 3cbd cf42 b0bc dacb 023d 1816 16bc
000000d0: 9be5 cc3c 6d76 2d3b b438 4bbd 0823 e0bb
000000e0: 6a39 26bd 392b 87ba 7678 7d3c 5292 b73c
000000f0: f084 103c de0b 12bd 21aa 76bb c520 8f3c
00000100: c93c 5d3c e07d de3c e264 6cba 59c0 9b3c
00000110: 9ad0 bdbc 750d 053d cc09 2abd ebde 073c
00000120: 8d48 08bd 9e4d d03b 7c69 89bc 9685 fc3b
00000130: 4456 753c cdf7 783c 5156 053d 550d 52bb
00000140: 2015 47bd 73d6 16bd 6b79 953c 27be 19bb
00000150: 1d65 efbc 0e9e ae3a af8e cd37 0b37 31bd
00000160: 9637 2dbd 3e5f de3c f563 a0bc 4a7b ed3c
00000170: ca78 903c e08e b33a 78c2 cfbc 74e9 0fbb
00000180: c6dc 333c 6ff5 47bd 51f0 023d 8b4b 7dbc
00000190: 7c3e 3fbc 5f9e b6bc cf19 bfbc 2c3b 29bc
000001a0: 8609 ccbc 11c5 6d3c 2cb0 acbc 098d e23c
000001b0: ab58 42bc 5f63 5e3c d9d5 5ebc 96a6 eebc
000001c0: 15a2 5b3c 3135 1d3d 0a8e e73c 041a 8a3c
000001d0: 0404 f23c 2f48 c53c 9039 93bc 50b8 d83b
000001e0: 6885 1f3d 2471 4fbb 3b14 bc3c 5952 3fbd
000001f0: 6d70 013d 02a3 c63c e873 c2bb 1b3e 07bd
00000200: 75a0 29bd 7b52 2c3c 84f7 0fbc d94f 41bd
00000210: 61c3 4abd b268 ccbc 18f2 a83c 44b8 14bd
00000220: e6f0 cc3c 485c 113d 7870 00bd fc3b 2d3c
00000230: 91cc 84bc 2095 27bc 838a 45bd 188e 9b3c
00000240: 6af6 46bd c576 0e3d fc68 30bc d035 bbbc
00000250: 5e5d 4abd 35aa 11bd 2faf 12bd d392 77bc
00000260: 60e9 ac3c 9f47 ffbc 3610 4abd ef7d 1b3d
00000270: f4f9 05bd d352 15bc 0073 45bc 1657 f63c
00000280: a304 12bd 95fc 84bc ab0c aa3b e91a 0a3d
00000290: 9c74 af3b bccd 9a3c d9f2 a1bc b863 8ebc
000002a0: 26a2 9f3c 8be1 1bbd 9a64 22bd c0f4 173d
000002b0: 2ede 9a3c 4279 d43c de10 16bd 679c 933c
000002c0: 5a48 14bc 0906 3ebd 936e 093d 188a 0a3d
000002d0: a171 3fbd ca23 ec3c 8c9e 82bc 62c1 a43c
000002e0: 2f50 3dbd 5796 9e3b 96b4 a83c 734a 3fbd
000002f0: d4a5 2fbd 0898 0fbd 8b80 d0bc e1f0 0fbd
00000300: 3a94 e33c 3148 293c b4f8 86bc e0c7 f1bc
00000310: 936e bdbc 77a4 ccbc a880 34bd 3a5c eabb
00000320: 25bc 42bd 56e0 46bd bc30 78bc 7dc2 1b3c
00000330: 8c78 09bd eea6 b4bc 9370 27bd c4ac a83c
00000340: d344 8438 0d67 ca3c 50d0 903c 13bb f23a
00000350: 2029 543b eafc ca3b 18b4 093d b11a 983b
00000360: bb4c 233d 593c d43c b303 1a3d 1b8d 76bc
00000370: 8dd7 3b3c 4563 a83c 5ac9 b93c 071c 2cbc
00000380: 7994 09bd 0392 8cbc 9d67 01bd 91c7 0dbd
00000390: b874 da3c 8dbc d63c 551d 003d 00a3 73bb
000003a0: 6cda bdbc 5346 89bc 6664 7cbc a932 d5bc
000003b0: 1e7e 113b 2894 3bbd 5f97 df3c 831c bfba
000003c0: 8112 fcbc 75fe 2dbc 5381 0dbd 5353 3bbd
000003d0: 1059 1cbd d56b 2bbd 9a9a 0d3d ef35 21bc
000003e0: 5bbc 7bbc 5a6b 773c 9c0a 4abd 32d1 9d3c
000003f0: a26f 44bd e6bb a43a adc9 30bd 97c5 9d3c
-0.031720575 -0.04031853 0.012720211 0.006983112 0.030739168 -0.038762785 -0.026464263 -0.005786214
0.006211186 -0.009328287 0.0322257 0.03407906 -0.03275546 0.04037069 0.038254976 0.021000504
-0.041476328 -0.033168685 0.020653116 0.017858172 -0.018055258 -0.018609025 -0.018716061 -0.034964774
0.004887331 -0.0020441003 -0.014976447 -0.034200747 -0.048356134 0.004608273 -0.039740574 0.029758563
0.00586302 -0.011853231 0.025021484 0.03783104 -0.028002953 0.019772133 -0.026918715 0.012274984
0.029678691 -0.026004622 0.0149584 0.0057068383 -0.0048187994 -0.05174793 0.025399122 -0.015142868
-0.046028744 -0.021516232 0.03193269 -0.009160541 0.025011828 0.0026468292 -0.049614623 -0.0068401136
-0.040582098 -0.0010312564 0.015470615 0.022408638 0.008820757 -0.03565585 -0.0037638026 0.01747168
0.013503262 0.027159631 -0.0009017718 0.019012617 -0.023170758 0.032483537 -0.04151325 0.008292894
-0.033272315 0.006356909 -0.016773932 0.0077063544 0.014974181 0.015195799 0.03255302 -0.0032051404
-0.04860413 -0.03682561 0.018246373 -0.0023459287 -0.02922302 0.001332225 2.4504347e-05 -0.043265384
-0.04228934 0.027145024 -0.019578913 0.028989453 0.017635722 0.0013699196 -0.025361285 -0.0021959217
0.010977929 -0.048818048 0.031967465 -0.015459905 -0.011672612 -0.022292314 -0.023327736 -0.010329049
-0.024906885 0.014512316 -0.021080099 0.027655141 -0.01186196 0.013573497 -0.01360079 -0.029132169
0.013405343 0.038380805 0.028265972 0.016858108 0.02954293 0.024082271 -0.017971784 0.0066137686
0.038945585 -0.003165313 0.022958865 -0.046709392 0.03160136 0.02424765 -0.0059342273 -0.033018213
-0.04141279 0.010517712 -0.00878704 -0.04719529 -0.049502734 -0.024952266 0.020623252 -0.036308542
0.025017213 0.035488397 -0.03135726 0.010573383 -0.016210826 -0.010228425 -0.0482278 0.018988654
-0.048574843 0.034781236 -0.010767218 -0.022852808 -0.04940545 -0.035562713 -0.0358116 -0.015110689
0.021107376 -0.031162081 -0.049331866 0.037961897 -0.032709077 -0.009113985 -0.012051344 0.030070823
-0.035648953 -0.016233722 0.0051894984 0.03371707 0.005354477 0.01889693 -0.01976912 -0.017381534
0.019486498 -0.03805689 -0.039646722 0.037098646 0.018904772 0.025936726 -0.03663718 0.018018914
-0.009050453 -0.046392474 0.033552717 0.033823103 -0.046739224 0.02882566 -0.015944742 0.020111743
-0.046219047 0.0048396992 0.020593923 -0.04670186 -0.042882755 -0.035057098 -0.025451919 -0.03514183
0.02778064 0.010332153 -0.016476013 -0.029514253 -0.023124015 -0.024980767 -0.04406801 -0.0071521075
-0.04754271 -0.048553787 -0.015148338 0.009506819 -0.033562228 -0.022052255 -0.040878844 0.020590194
6.30707e-05 0.024707342 0.017677456 0.0018518887 0.0032373145 0.0061947005 0.033619016 0.0046418537
0.039868098 0.025907682 0.037601184 -0.015048291 0.0114649655 0.020555148 0.02267902 -0.010504729
-0.03358886 -0.017159468 -0.031592954 -0.03461415 0.026666984 0.026212955 0.031277973 -0.0037176013
-0.02317544 -0.016757166 -0.015404796 -0.026025133 0.0022200416 -0.04579559 0.027293859 -0.0014580641
-0.030770542 -0.010619749 -0.03454716 -0.04573376 -0.038170874 -0.041850884 0.034571268 -0.009839519
-0.015364732 0.015101278 -0.049326524 0.019264791 -0.047958024 0.0012568205 -0.043161083 0.019259257

linearSequential.4.bias f4 [256]
00000000: c41b 43bc 5116 dcba d317 8e3d 5e39 fdb9
00000010: f930 7f3d 1f94 173d a458 263d be23 3bbd
00000020: df1d 39bd 4237 203d d556 433d 62ce e53c
00000030: 6b6c 6dbc 3b7c 193b 5831 e13d a967 d93c
00000040: c7b4 c13d 69c7 0e3d a8c9 573c 8367 723d
00000050: 439b d13d 0272 8b3d 9d52 a93d e16b ce3c
00000060: 4ed2 44bb 3d95 283c aba4 b03d 1cb9 f63c
00000070: d9f3 283d bae3 3cbc ffc3 a63d 9266 7d3d
00000080: 8ebe ee3d b14e 273c 4901 d63d 626d d13d
00000090: ae84 a43d 85f0 c73d d442 a83d 6d19 ee3d
000000a0: 0185 4a3d 5e0c 003d 0b10 213d 69dd 043d
000000b0: 739f 46bd 639d 35bd 0439 343c 52b4 b03b
000000c0: 75ed c13d f325 403b 9993 813d a0c6 29bc
000000d0: 5da4 2e3d 240e 7cbc be30 52bc 14c3 d83d
000000e0: 6780 093d a12e c63d 887e 753d 8a7e bcbb
000000f0: dddc d03d 456a 863d 8acf 57bc bb99 0e3d
00000100: 077c ea3c 808e 3bbc e5dc 083d 2d3c bd3d
00000110: 1d88 ab3d 6f9e 563d e186 9f3b 92c5 853d
00000120: 9f96 ccb9 447e 6d3d ae79 e2bc 7f69 a93d
00000130: 77e3 3ebd 8ac8 603d 5c83 30bd 8b9a 043d
00000140: 27d5 a73b e9e2 8b3d 4afd ac3d 8ce0 cbbc
00000150: c09f 8c3d 8017 963d dd43 dabc f09e 7b3c
00000160: bb4d 1f3d b07b 18bc cf1c e93d 6042 f13c
00000170: 7764 1dbd 581b 02bc 582c 643c 95e5 803c
00000180: 2440 5c3d 1ba5 383d 3969 2dbd fc79 76bc
00000190: a98a a53d d7b4 393d e2f7 5b3d ec34 f33d
000001a0: 5f41 b53d a407 11ba d1b5 073c 4b1e 6b3d
000001b0: df49 a9bc 4181 20bb f431 bb3d d847 603d
000001c0: 1693 b43d 75a5 ae3d 06de 0e3d 8365 683c
000001d0: ae82 213d e2ba 09bd 62f1 163d 7ce1 843d
000001e0: 3c02 f6bc 73dc 37bd f6b2 803d 742d c63d
000001f0: e215 923b add1 45bc 665c 1fbd 36a3 ae3d
00000200: 6dad 0abd 0a8a 853c c385 4ebd 87b8 7d3d
00000210: 5ceb bc3d e167 bc3d f98d 11bd daf5 0a3d
00000220: c8b0 3b3d 067b 463c 2a3c 2b3d e19c 523b
00000230: a05c 873c f765 a03d b363 af3d 4a8f 84bc
00000240: 8938 8e3d d05f 7e3d e3ae 8bbc f87a f4bc
00000250: 4a0e 193d d2a9 b1bc 5f2e 723c 7d3c 40bd
00000260: f6d8 b13d 725b 34bd f3ea ba3d 4f44 61ba
00000270: 0254 593c 22e6 31bd 7939 4abd d73f ad3c
00000280: 1e2a 483d 2f8d 2c3d 2197 f63c e8fb a83d
00000290: 150c e53b 98df d23d 1a7f 23bd 3113 ee3d
000002a0: d11f 0a3d e8f0 9e3c 861d 0f3d 346b 563d
000002b0: b920 603c 876a 8e3d f70d 81ba 7e96 69bc
000002c0: 0227 e03d d88d 933d 9937 8d3d 23f6 b43d
000002d0: e864 903d 14d7 883d 7bed c83d df90 083d
000002e0: 9725 fbbc 0cc9 6f3d c28c 3dbd 4905 16b9
000002f0: ae6e 953a 905b fb3c 4bdd 013c af0c e1bc
00000300: fa02 e8bc cd91 23bd bd8c bbbc 8008 8e3d
00000310: b506 003d d17c 9b3d f61c d0bb 98eb a73d
00000320: 9713 243d 01fc 843d edf9 443d 79af 81bb
00000330: 3fd6 b6bb 156a 0b3d d7aa 4a3d f945 3c3d
00000340: 59a6 dd3c 8cb0 a13d 91b9 a83d 0735 a03c
00000350: 3cf6 c6bc 46ff 1f3d fbf5 673d ce9e 8b3d
00000360: 7d1c cf3d 839b d13d 4976 883d d2c9 943d
00000370: 6c01 bc3d 77f4 993b 8d89 993d 5205 113d
00000380: d65c 33bd fa37 da3d 469d e13c c30a 623d
00000390: d488 d5bc d4df 48bd 657a 37bd 3114 6ebb
000003a0: 7cb3 ab3d 9a07 bd3d efb1 3c3c c60b 8f3c
000003b0: 702b a53c 73ed ca3c f3ea 8d3d 25b1 763d
000003c0: 6396 a93d d237 953d c3a3 023d 2aa5 a63d
000003d0: 07d3 973d b3fe 093d 762e aa3d a40a a93d
000003e0: 4e90 8b3d 438b 26bd cffc 4b3d bd54 f73d
000003f0: 17f1 93bc 366d 443a 4c16 0fbd 5e97 0f3c
-0.011908475 -0.0016791319 0.06938138 -0.00048298662 0.062302563 0.037006494 0.040611878 -0.045688383
-0.045194503 0.039115198 0.04769023 0.028052513 -0.014491181 0.0023419994 0.1099574 0.026538687
0.09458309 0.03485814 0.013170637 0.059180748 0.10234692 0.06808855 0.0826771 0.025197925
-0.0030032578 0.010289487 0.08625158 0.030117564 0.041248176 -0.011528904 0.08142852 0.061865397
0.11657439 0.010211633 0.10449464 0.10225941 0.08033119 0.09762672 0.082158715 0.11625943
0.04944325 0.031261794 0.03932194 0.032437716 -0.048491906 -0.04433955 0.010999922 0.0053925896
0.094691195 0.0029319494 0.0632698 -0.010362297 0.042637218 -0.015384231 -0.012829004 0.10584083
0.03356972 0.096768625 0.059935123 -0.0057523893 0.10198376 0.06563238 -0.01317204 0.034814578
0.028623594 -0.011447549 0.033413786 0.09239993 0.08375571 0.052397188 0.0048683737 0.06531824
-0.00039022134 0.057981744 -0.027645912 0.08272075 -0.046603646 0.05487875 -0.043094024 0.032373946
0.0051218453 0.06830389 0.084467486 -0.024887346 0.068664074 0.07328701 -0.026643688 0.015357718
0.03889249 -0.009306833 0.11382448 0.029450595 -0.03842589 -0.00794109 0.013926588 0.015734473
0.053772107 0.04507933 -0.042336676 -0.015043732 0.08083088 0.045338478 0.053703196 0.118753284
0.08850359 -0.00055324496 0.0082830945 0.057401937 -0.020665107 -0.0024491104 0.09140387 0.054756016
0.08817117 0.08527652 0.034879707 0.0141843585 0.039431266 -0.03362549 0.036851294 0.0648832
-0.030030362 -0.04488797 0.06284134 0.09676638 0.004458175 -0.012073916 -0.038906477 0.08527224
-0.033856798 0.016301174 -0.050420534 0.061943557 0.09224579 0.09199501 -0.035535786 0.03392587
0.04582289 0.012114292 0.041805424 0.0032136964 0.01652366 0.07831948 0.08563938 -0.016181607
0.06944377 0.062103093 -0.017051166 -0.029843792 0.037367143 -0.021687422 0.014781564 -0.046932686
0.0868396 -0.04403252 0.09126844 -0.00085932476 0.013264658 -0.043432362 -0.049371216 0.021148605
0.04886829 0.04212683 0.03010136 0.08251172 0.0069899657 0.102965534 -0.039916135 0.11624754
0.03372175 0.019401982 0.034940265 0.05234833 0.013679677 0.06953912 -0.0009846081 -0.014257072
0.1094494 0.07204789 0.0689537 0.08836009 0.07050496 0.06681648 0.09810921 0.033341285
-0.030657573 0.058541343 -0.046276815 -0.00014307084 0.0011400783 0.030683309 0.0079262955 -0.027471868
-0.028321732 -0.03993397 -0.022894258 0.06935215 0.031256396 0.07592166 -0.0063511087 0.08199233
0.040057745 0.064933784 0.04808991 -0.0039576855 -0.0055797393 0.034036715 0.04947933 0.04596517
0.02705686 0.07895002 0.08238519 0.019556535 -0.024287336 0.039061807 0.05663107 0.06817399
0.101128556 0.1023474 0.06663186 0.07265057 0.09179959 0.004698332 0.07496939 0.035405464
-0.043789707 0.10655208 0.027540814 0.055186044 -0.026066221 -0.049041584 -0.04479446 -0.0036327953
0.08383843 0.092299655 0.011517032 0.017461669 0.020162314 0.024771428 0.06929579 0.060227532
0.08280637 0.072860375 0.031894457 0.08136971 0.07413297 0.033690166 0.08309643 0.08253983
0.06814633 -0.040660154 0.049801644 0.120767094 -0.018059297 0.00074930803 -0.034933373 0.008764116

linearSequential.6.weight f4 [128, 256]
00000000: aecb 203d 8166 f93c f7ae 37bd 4bdd 67bd
00000010: 2976 463d 205c 1ebd 9e5e 4e3d 409e 783c
00000020: 388e e13c a563 15bd e404 57bc 1812 18bd
00000030: b71f 32bd c1ef 21bd 8370 61bd b2f8 79bd
00000040: 037c 8fbc 664a 1e3d 9eb8 4a3d 3f2b 7dbc
00000050: afd5 05bc a12e 8abb 01aa 523d 7992 8fbc
00000060: 1bcc 4fbd 933b babc 247f c73c 2638 dfbb
00000070: 114f 67bc 3aee 10bd 6701 0cbd bfad 4dbc
00000080: bba1 cabc 0469 1abd 8f28 2ebd 0905 5dbc
00000090: 6b49 10bd efd2 ce3c f43b 63bb 5d8a 463d
000000a0: 9206 333d 15c9 d3bb 1992 78bd 7656 333d
000000b0: 4ac8 04bd e8b6 0dbd 5c0e 14bd eeff e83c
000000c0: 1b3d 0a3c 48be 11bd c2c7 11bd 2058 7f3b
000000d0: 4a0e 443d 30a9 3dbc 0503 563d 46f2 933b
000000e0: 320c 83bd e6f1 81bd bf02 f0bc ea7b bc3b
000000f0: c430 603c c9a6 ea3c 0745 043c a4ca 64bc
00000100: 235c 00bd b91f 2abd 6400 07bd 4dbc 4ebc
00000110: fc2a c33c 2e8d b53c b447 78bd 23f3 43bd
00000120: 3dc7 3d3b 960b 74bd 0fb4 49bd 463f 573c
00000130: a0c8 4cbb 6f2b 043c a385 88bb e0df 923c
00000140: b94e 823c 8b15 d73b b44e 5f3d 0927 7cbd
00000150: 8dcd 043c 06a3 3dbc bbf9 67bd 089f 33bd
00000160: af1d fabc f267 2a3d df2c df3c c1c5 3b3d
00000170: ec03 92bc 0018 3cbc 3972 133d 19db 2e3d
00000180: ebe8 52bd 7a00 ebbb 0249 87bb 767d 3dbd
00000190: a708 e83c 6364 f63b 6dbb 8abd 5734 a23c
000001a0: df7f 7ebb 1ff2 efbc 23f6 20bd c86d c43c
000001b0: fdbc 39bd 1621 e93c 6000 543c fc3c 52bd
000001c0: 07af 3abd ba64 39bd 9121 1539 476c 10bd
000001d0: bff4 f73c 44a9 79bd 456d ff3c 851b 08bd
000001e0: f33a eb3c eca6 94bc 645c 9c3c 4d95 a5bc
000001f0: 9f0d 453d 7fee 33bd 91a7 733c f693 30bd
00000200: 6c9a dd3c 41f6 33bd 86be 49bd dab0 bc3b
00000210: f413 eb3c 1692 f33c b88f 29bc 7f5e 793c
00000220: 17e1 efbc 8530 f7bc 92e2 f2bc 1b2b 3f3d
00000230: 57ab 373d 715d 37bd 117a 51bd c6ab 1c3d
00000240: 6e3d 84bb c34c 883c d00f 713c 42cb e33b
00000250: d013 4ebd a4ca 7cbb 0a76 32bd 4132 8bbc
00000260: 6499 663d 5fc6 61bd ba2a 0dbd ffd6 613c
00000270: 1daf 3c3c 249a de3b f190 b23b 98ec ac3a
00000280: 5af4 333d 22e4 39bd a283 0fbc 6704 e53c
00000290: 5100 fbbb 530e 3abd c019 283c bc55 edb9
000002a0: 870b c2bb ffb2 f5bc 41b0 fa3c 7509 563d
000002b0: 76b7 9bbc 346a 51bd 9a1b 473d b6fb 71bd
000002c0: ddb9 8bbc 8548 c5bc 2a6f 15bd 391c 45bd
000002d0: 2163 82bc 4a61 1c3c d3e5 7a3d f5a1 ac3b
000002e0: 981f 363d b585 1fbd cadf 2e3d 8c78 dc3c
000002f0: bafe 35bc c140 1e3d cbec 98bc 5204 493c
00000300: a3ae 4e3d abae 193d 58aa 85bd 307a 85bd
00000310: f591 06bd b98f dabb efe4 84bd f29f 383d
00000320: e524 6dbd edea 4abd d0e3 863d 0cfc 69bd
00000330: 11d7 60bd d28c 083c b373 0d3c 7938 83bd
00000340: aa8b 4e3d 03a8 1fbd cec1 db3c 36b8 683c
00000350: ff29 fc3b fd70 c93b 8246 6bbd ef20 83bc
00000360: fc2c 02b8 6b24 ca3c d5b5 6b3c ae33 f03c
00000370: 2576 4abc 3481 5f3d 0b1a a63b 3c4e 823c
00000380: 28bb 553c ade7 223d 7841 bdbc 2537 7b3c
00000390: abd4 833b 6514 63bd 1651 483d 63fc 1a3c
000003a0: 026a 67bd 2eca 92bc 987c 723c 9642 183c
000003b0: 77e0 703c 20d8 833c 1d9c 98ba 78ff 64bd
000003c0: 9dc3 793b 9c41 833c 343b 52bc 5043 8dbc
000003d0: 2f58 543d 8a32 31bd b0cb e2bc 4523 133d
000003e0: 02fa 643d fb21 7fbd bcb2 08bb 658d 483d
000003f0: 4637 ff3b 8586 19bd d094 c1bb 8c27 0d3d
0.039256744 0.030444385 -0.044844594 -0.056607526 0.04845253 -0.038662076 0.050383203 0.0151744485
0.027533635 -0.03647198 -0.013123725 -0.03712663 -0.043487277 -0.039535288 -0.05503894 -0.06102819
-0.017515188 0.03864517 0.04949247 -0.015452205 -0.008168622 -0.0042169844 0.05143166 -0.017525898
-0.05073176 -0.022733485 0.024352618 -0.0068121133 -0.014117972 -0.03538344 -0.034181025 -0.012553631
-0.024735322 -0.037697807 -0.04251915 -0.01348997 -0.035226267 0.025247065 -0.0034673186 0.048471797
0.043707438 -0.00646318 -0.060686205 0.043783627 -0.032417573 -0.03459826 -0.036146507 0.02844235
0.00843742 -0.035581857 -0.035590895 0.0038962439 0.04786519 -0.011575982 0.052248973 0.004514965
-0.063988104 -0.063449666 -0.029298184 0.0057520764 0.013683502 0.028643982 0.008073098 -0.013964329
-0.03133787 -0.04153416 -0.032959357 -0.012618137 0.023824207 0.022162046 -0.060615256 -0.047839295
0.0028957867 -0.05958136 -0.049243983 0.013137644 -0.0031247512 0.008066996 -0.0041663214 0.017929018
0.015906679 0.0065638474 0.054518417 -0.061560664 0.008105648 -0.011574512 -0.056634646 -0.043852836
-0.030531732 0.041603036 0.027243076 0.04584289 -0.017824136 -0.011480331 0.035997603 0.042689417
-0.05149166 -0.0071716877 -0.0041285763 -0.046262227 0.028324438 0.0075192912 -0.0677403 0.019800348
-0.0038833541 -0.029290257 -0.039297234 0.023978129 -0.04534625 0.02845816 0.0129395425 -0.05132769
-0.045577075 -0.045262076 0.00014222252 -0.03525951 0.030268071 -0.06095244 0.031180033 -0.03322937
0.028714633 -0.018146 0.019087024 -0.020212794 0.048108693 -0.04392862 0.014871494 -0.043109857
0.027051173 -0.043936018 -0.049253963 0.005758387 0.028696038 0.029732745 -0.010349207 0.0152202835
-0.029282136 -0.030174503 -0.029649053 0.046671968 0.044841137 -0.044766847 -0.051141802 0.038249753
-0.0040356433 0.016638165 0.014713243 0.0069517205 -0.050311863 -0.0038572932 -0.043569602 -0.016991736
0.05629863 -0.055120822 -0.034464575 0.013784169 0.01151636 0.0067932773 0.0054494073 0.0013193069
0.043934204 -0.04538358 -0.008759411 0.0279562 -0.00765995 -0.045423817 0.0102600455 -0.0004526804
-0.0059217843 -0.029992579 0.030601623 0.052255113 -0.01900838 -0.051126674 0.048610307 -0.05907794
-0.0170564 -0.024082432 -0.036482967 -0.04812262 -0.015916409 0.00954468 0.061254334 0.00526833
0.044463724 -0.038945872 0.04269389 0.02691295 -0.011108095 0.038635973 -0.0186676 0.012269096
0.050459515 0.037520092 -0.06526631 -0.06517446 -0.03285404 -0.006669965 -0.06488978 0.04507441
-0.057896513 -0.04954045 0.065864205 -0.057125136 -0.054892603 0.008334355 0.008633542 -0.06407256
0.050426163 -0.038978588 0.026825812 0.014204076 0.007695436 0.0061475025 -0.05744029 -0.016006915
-3.103631e-05 0.024675569 0.014386614 0.029321518 -0.012357269 0.054566577 0.0050690225 0.015906446
0.01304511 0.039771724 -0.023102507 0.015332972 0.0040231547 -0.05543937 0.048905455 0.009459588
-0.05649758 -0.017918672 0.014800213 0.009293219 0.014701954 0.016094267 -0.0011643205 -0.055907696
0.003811098 0.016022496 -0.012831498 -0.017244011 0.05184191 -0.04326109 -0.027685016 0.035922308
0.05590249 -0.062288266 -0.0020858487 0.04896297 0.0077885715 -0.037481803 -0.0059076324 0.034461543

linearSequential.6.bias f4 [128]
00000000: fc03 193d c719 a03c 0e83 d23d 4cd4 da3d
00000010: deb5 56bd e454 b23d c0b3 8e3c 4025 9cbc
00000020: bb0c af3d d29a 133c 9f7f 44bc 2643 d33c
00000030: 452e 78bd ad93 db3d db3c 24bd fa2f 81bc
00000040: 217a 873c ffba d83b a8e3 d03d 9afa 60bd
00000050: ce9a 2abd 5b8a 8b3d de02 533d 55c0 c13d
00000060: 5289 d93c 3056 30bd 5f85 be3c 7847 403d
00000070: 7aeb 983c 7c0d 3e3d 34a6 30bd b81c fe3c
00000080: 6836 73bc aeac 933d 2507 64bd 1d60 063e
00000090: 45a0 a63c 3a12 25bd b5fa 48bc f4dc babc
000000a0: f7c9 be3c bbc8 14bd 8c7d b6bc e1f8 393c
000000b0: a3c3 023e 0aa3 ffbc 6288 493d 201f 4ebd
000000c0: c10d 0fbc 6e1f 86bd 8276 dc3d a809 ca3b
000000d0: 83b9 553d ea04 44bc 33c4 d33d c245 1b3c
000000e0: 6ebb f53d 251c fd3a 0aa3 2e3c 7381 cc3d
000000f0: d828 80bc e107 7ebd 5922 32bd e421 e83c
00000100: 3d71 dd3d e4b7 4e3d 820e bc3c 33a6 143d
00000110: 874c 8b3c 9c52 64bc d9d0 043e 9a10 a1bc
00000120: d28b 6a3d ae9e 863d e3af 683d 912b 2fbd
00000130: d483 d93c 37d8 f8bc 4428 1abd 637b 713d
00000140: 2ebd b23d 707a 023e be34 f33d d5d1 ed3d
00000150: 4424 38bd 0eb0 0f3d 5087 babc 8d8a c4bc
00000160: b24a 023c 4864 febc 9654 713d 14bb efbc
00000170: 7bd3 e23d 6331 ad3c b5c2 413d 8482 49bd
00000180: fdcd a93d 86e2 35bd efe2 96bc efb6 513d
00000190: 7f34 a33d ad50 7e3c d75f 7a3a e2ba fa3d
000001a0: 6e82 70bd 8c46 603d 837f 3b3c a821 54bc
000001b0: 631d de3c 06e5 14bd 90bd bdbb 042e a93d
000001c0: cc4b 523c aac9 103d 80a6 24bd 5401 0ebd
000001d0: 684e 3b3c af15 85bc c885 34bd 7ead f9bc
000001e0: 1793 133d d484 7a3d e83a ca3d 8a7f 333d
000001f0: f7b7 a7bc 7ed8 de3c fb2d 363c ab01 54bc
0.037357315 0.019543542 0.10278903 0.10685024 -0.052419536 0.08707598 0.017419696 -0.019060731
0.0854735 0.00900908 -0.011993318 0.025788855 -0.060591 0.10721526 -0.0400971 -0.015769947
0.016537728 0.0066140885 0.10199672 -0.054926492 -0.04165154 0.068134986 0.051516406 0.094605125
0.026554737 -0.043050945 0.023256956 0.046943158 0.018666971 0.04639958 -0.043127254 0.031019554
-0.014844514 0.072106704 -0.055670876 0.13122602 0.020340094 -0.040300585 -0.012266804 -0.022810437
0.023289664 -0.036324244 -0.022276662 0.011350841 0.12769942 -0.031205673 0.04920233 -0.050322652
-0.0087313065 -0.065489635 0.10764791 0.006165702 0.05217887 -0.011964062 0.103401564 0.009477081
0.1199864 0.0019310756 0.010658989 0.09985628 -0.015644476 -0.062019233 -0.043489788 0.028336473
0.10812614 0.05046834 0.022956137 0.036291312 0.017004265 -0.013935711 0.12970294 -0.019661237
0.05726225 0.065732345 0.056808364 -0.042766158 0.026552118 -0.030376537 -0.037636057 0.05895556
0.087274894 0.12742019 0.11875294 0.11612288 -0.04495646 0.03508001 -0.0227696 -0.023991847
0.007952379 -0.031053677 0.058918558 -0.02926401 0.11075493 0.021141713 0.047304828 -0.049196735
0.08291242 -0.044405483 -0.018418757 0.05119985 0.07968997 0.015522164 0.00095510244 0.12242676
-0.058718137 0.05475478 0.011443975 -0.012947477 0.027113622 -0.036351226 -0.00579042 0.0826073
0.012835454 0.03534857 -0.04019785 -0.034669235 0.011432268 -0.016245691 -0.044072896 -0.030478235
0.036028948 0.06116183 0.09874517 0.043822803 -0.020473463 0.02720284 0.011119361 -0.012939851

linearSequential.8.weight f4 [64, 128]
00000000: 008f b13d 6be6 013d d49b d9bc a4a8 55bd
00000010: 860e d83c e950 6f3c 2c64 1dbd 8c3c bc3d
00000020: f001 babd ca19 64bd ff35 3b3d 3e1f 163d
00000030: a8bc c33c b81a aabc 4083 f23a f9ca 55bd
00000040: f850 863d 82fe 883d 1617 e9bb 912a 023b
00000050: 674a 90bd 40e7 e13b 594b 87bd 435a 97bd
00000060: b276 b6bc eec7 393d 4de2 0bbd 1617 48bc
00000070: 3002 c63b f5e3 d43c 6dc1 9abd e4b0 7dbc
00000080: e35f 53bc fdfb 08bd 2e1c 33bd efe5 2c3d
00000090: 5824 f13b 47f0 92bc 1178 603d 1c84 0f3d
000000a0: 86ce 563d 6c94 0bbd 50f5 2c3c f85f 1cbd
000000b0: 26e0 41bd c2fd 613d 1100 8abd f558 593d
000000c0: 0818 39bd b2e9 8f3d 3307 923c 971c a0bd
000000d0: 0f67 633d 7847 373d 8b28 1f3c 0125 72bd
000000e0: 48b7 bdbd 0d08 b33d c74a 0d3d e5ba 323d
000000f0: ccd5 873c e649 aa3c 7eb4 8b3d dd06 4ebd
00000100: 00b7 9ebd ebd0 16bd fe34 f13c ff96 353d
00000110: c471 82bd 3e86 f2bc 53fd 923d b27c 9ebd
00000120: f97f 65bd b4a4 39bc f0b4 74bd a725 bc3d
00000130: 4797 a0bd 547c 133d ac54 183d 7a37 bebb
00000140: 2221 03bd fcad 983d 0b0d 313d a171 f7bc
00000150: d1c5 04bd 3748 4fbb d998 ca3c fbe5 a93d
00000160: cf70 8ebd f9e1 18bd 5982 473d b734 9d3d
00000170: 28a8 263d 07d0 ffba dd3e b8bd a645 b1bd
00000180: cff0 96bd a804 5bbc a09c a43c e3c1 35bd
00000190: fe27 ab3b 8aa7 49bd 3549 5f3c 3c3f 443d
000001a0: dc41 e53c a1b7 7cbc 53c1 63bd 4342 8e3d
000001b0: 27dd 53bb e3fe fe3c fc44 66bc b891 913d
000001c0: d568 29bd ef6a dcbc db78 fa3c 4077 1fbd
000001d0: c105 8a3d 3e39 b83d a24c 59bd ec3a 3fbd
000001e0: 948e a2bd d185 23bd a338 9cbd 82b6 51bd
000001f0: a7c7 9f3d 044a 68bd d8ab a43b b703 3cbd
00000200: 6847 f53c 8c4a 80bd feba 793d 00e9 09bc
00000210: 802d f83a 1068 53bd 65f2 8bbd d2da 6f3d
00000220: 030b acbd 28bb 01bc 060b 7e3d 5df3 25bd
00000230: 9cd2 0b3d 4fa7 abbd 209a 8f3b d8c8 713c
00000240: 5e1f 3dbd f67e 1e3d 9e65 adbd 5d8e 913d
00000250: fb18 a23d 2aef 053d 4094 8e3c b6de a1bd
00000260: cecc 3b3d 0046 4f3b 40d0 0d3d fb11 5abd
00000270: b07d 0dbc 3c2c b5bc 8929 823d 2388 40bd
00000280: 70ce acbd 2e0d abbd 5833 febc f0fe c53c
00000290: 86ae 97bd 1457 a6bc 1b85 a83d 91c5 44bd
000002a0: 0090 2939 50fc afbc c8d4 123d b754 a0bd
000002b0: 39a7 9cbd a690 603d 9a33 773d d69d 2a3d
000002c0: 8ac9 3f3d e8c1 06bd 2173 85bd 3456 da3c
000002d0: 007e 7d3a a432 34bd 2ce6 acbd e091 26bb
000002e0: dbbc a33d 4e47 95bd 2b0a 49bd baee 473d
000002f0: 50b5 db3c 0005 d03a f24f 3e3d 99b3 19bd
00000300: b254 6a3d 476d 82bd 94e1 ffbc e65c 6e3d
00000310: c026 383c 96ec 5abd e600 80bd 42a1 f1bc
00000320: 254f 5abd 7da8 1abd b874 4a3c e85b 8e3c
00000330: adeb 923d 8086 ba3a 636c af3d 4022 043d
00000340: 5442 85bc 7873 20bd 6dcb 993d ec7d 72bd
00000350: dc0f c23c 0ec1 0f3d d0e8 063c f908 aa3d
00000360: a0a6 4a3b 827e 7d3d b938 a23d 45c0 8d3d
00000370: 50e5 8cbb 9c85 a33c b2a4 243d 93bd 9f3d
00000380: 7e09 a6bd d837 0c3d 807a 473b b8aa 5a3c
00000390: f3e8 a13d 9261 443d 8000 50bd a484 89bd
000003a0: 9d87 a33d 4e7f 56bd bc07 61bd 001d 433c
000003b0: f83d 1dbc e439 103d 802a dabb 2a40 583d
000003c0: 773a 03bd e75e 843d 5029 9c3c 6d0c a83d
000003d0: 4ca4 a4bc c1c7 aa3d 0b13 0cbd a530 afbd
000003e0: d453 ff3c 74d7 79bd 1b69 813d caf3 b0bd
000003f0: 0f14 aa3d 58db 2e3c f0a3 dd3b d835 f03c
0.08669853 0.031713884 -0.026563562 -0.05216278 0.026374113 0.014606693 -0.03842561 0.09191236
-0.09082401 -0.055688657 0.04570579 0.03665089 0.02389367 -0.020764694 0.001850225 -0.052195523
0.06558412 0.066891685 -0.0071133478 0.0019861797 -0.07045441 0.006894022 -0.06606168 -0.07390263
-0.022273395 0.045356683 -0.034151364 -0.012212535 0.0060427412 0.025987605 -0.07556424 -0.015484069
-0.012901279 -0.03344344 -0.043728046 0.04221147 0.007359069 -0.017936839 0.054802004 0.0350381
0.05244305 -0.034077093 0.010556534 -0.03817746 -0.047332905 0.055173643 -0.06738294 0.05306335
-0.045188934 0.07026996 0.017825698 -0.07817953 0.055518206 0.044745892 0.009714256 -0.05911732
-0.09263474 0.0874177 0.03449514 0.043635268 0.016581438 0.02078719 0.068215355 -0.050299514
-0.07749748 -0.036820333 0.029444214 0.044333454 -0.06369355 -0.029605027 0.07177224 -0.077386275
-0.056030247 -0.011330772 -0.059742868 0.09186869 -0.07841354 0.03600724 0.037190124 -0.005804953
-0.03201402 0.0745506 0.04322533 -0.03020555 -0.032415215 -0.0031628737 0.024731087 0.082958184
-0.0695511 -0.03732488 0.048708294 0.0767607 0.04068771 -0.0019516953 -0.08996365 -0.086558625
-0.07370149 -0.013367809 0.020094216 -0.044374358 0.0052232733 -0.049232043 0.013628294 0.047911867
0.027985506 -0.01542464 -0.05560429 0.06946232 -0.0032327862 0.031127399 -0.014054533 0.07107872
-0.04135974 -0.026906459 0.030575207 -0.038932085 0.06739379 0.08995293 -0.0530516 -0.04668705
-0.07937351 -0.03992254 -0.0762799 -0.051199444 0.078017525 -0.05671121 0.005025368 -0.04590198
0.029941276 -0.06264219 0.060969345 -0.008417368 0.0018934458 -0.051612914 -0.068333425 0.058558293
-0.08400538 -0.007918157 0.06202223 -0.040515292 0.0341364 -0.08381521 0.004382387 0.014757358
-0.046172492 0.038695298 -0.084666476 0.07107232 0.07914921 0.032698788 0.017404675 -0.07903807
0.045849614 0.0031627417 0.03462243 -0.053239804 -0.008635923 -0.02211582 0.063555785 -0.04700483
-0.08437812 -0.08352123 -0.031030342 0.024169415 -0.074063346 -0.020305194 0.08228513 -0.048039977
0.0001617074 -0.021482617 0.035847455 -0.07828658 -0.07649083 0.054825447 0.060351945 0.04165443
0.046823062 -0.032899767 -0.065161 0.026652433 0.00096699595 -0.043993607 -0.08442339 -0.0025416538
0.07995006 -0.07288991 -0.049081963 0.04881165 0.026819855 0.0015870631 0.04646296 -0.037524793
0.057209678 -0.06368499 -0.031235494 0.058194064 0.0112397075 -0.053448282 -0.06250171 -0.029495839
-0.053298134 -0.03775834 0.0123569295 0.017377809 0.07173858 0.0014230758 0.08565595 0.032259226
-0.01626698 -0.03917262 0.075095035 -0.05920212 0.023689203 0.03509622 0.008234218 0.08302493
0.003092207 0.061888225 0.07920975 0.06921438 -0.004299797 0.01996117 0.04019613 0.0779983
-0.08107279 0.034232944 0.0030438006 0.013346367 0.0790576 0.047944613 -0.050781727 -0.06714752
0.079848506 -0.0523675 -0.054939017 0.01190877 -0.009597294 0.03521146 -0.0066578984 0.052795567
-0.03203818 0.06463414 0.019062668 0.08205495 -0.020097874 0.08338881 -0.03419785 -0.085542
0.031167902 -0.060996488 0.063188754 -0.08640249 0.08304607 0.010672413 0.0067639276 0.02932255
